{"format": "graph-model", "generatedBy": "2.14.0", "convertedBy": "TensorFlow.js Converter v4.14.0", "signature": {"inputs": {"keras_layer_input": {"name": "keras_layer_input:0", "dtype": "DT_FLOAT", "tensorShape": {"dim": [{"size": "-1"}, {"size": "224"}, {"size": "224"}, {"size": "3"}]}}}, "outputs": {"output_0": {"name": "Identity:0", "dtype": "DT_FLOAT", "tensorShape": {"dim": [{"size": "-1"}, {"size": "29"}]}}}}, "modelTopology": {"node": [{"name": "StatefulPartitionedCall/sequential_1/hidden_layer/MatMul/ReadVariableOp", "op": "Const", "attr": {"value": {"tensor": {"dtype": "DT_FLOAT", "tensorShape": {"dim": [{"size": "2048"}, {"size": "1024"}]}}}, "dtype": {"type": "DT_FLOAT"}}}, {"name": "StatefulPartitionedCall/sequential_1/hidden_layer/BiasAdd/ReadVariableOp", "op": "Const", "attr": {"value": {"tensor": {"dtype": "DT_FLOAT", "tensorShape": {"dim": [{"size": "1024"}]}}}, "dtype": {"type": "DT_FLOAT"}}}, {"name": "StatefulPartitionedCall/sequential_1/output/MatMul/ReadVariableOp", "op": "Const", "attr": {"value": {"tensor": {"dtype": "DT_FLOAT", "tensorShape": {"dim": [{"size": "1024"}, {"size": "29"}]}}}, "dtype": {"type": "DT_FLOAT"}}}, {"name": "StatefulPartitionedCall/sequential_1/output/BiasAdd/ReadVariableOp", "op": "Const", "attr": {"dtype": {"type": "DT_FLOAT"}, "value": {"tensor": {"dtype": "DT_FLOAT", "tensorShape": {"dim": [{"size": "29"}]}}}}}, {"name": "keras_layer_input", "op": "Placeholder", "attr": {"shape": {"shape": {"dim": [{"size": "-1"}, {"size": "224"}, {"size": "224"}, {"size": "3"}]}}, "dtype": {"type": "DT_FLOAT"}}}, {"name": "StatefulPartitionedCall/sequential_1/keras_layer/StatefulPartitionedCall/StatefulPartitionedCall/StatefulPartitionedCall/predict/resnet_v2_50/block1/unit_1/bottleneck_v2/conv1/Conv2D_weights", "op": "Const", "attr": {"dtype": {"type": "DT_FLOAT"}, "value": {"tensor": {"dtype": "DT_FLOAT", "tensorShape": {"dim": [{"size": "1"}, {"size": "1"}, {"size": "64"}, {"size": "64"}]}}}}}, {"name": "StatefulPartitionedCall/sequential_1/keras_layer/StatefulPartitionedCall/StatefulPartitionedCall/StatefulPartitionedCall/predict/resnet_v2_50/block1/unit_1/bottleneck_v2/conv1/Conv2D_bn_offset", "op": "Const", "attr": {"dtype": {"type": "DT_FLOAT"}, "value": {"tensor": {"dtype": "DT_FLOAT", "tensorShape": {"dim": [{"size": "64"}]}}}}}, {"name": "StatefulPartitionedCall/sequential_1/keras_layer/StatefulPartitionedCall/StatefulPartitionedCall/StatefulPartitionedCall/predict/resnet_v2_50/block1/unit_1/bottleneck_v2/conv2/Conv2D_weights", "op": "Const", "attr": {"value": {"tensor": {"dtype": "DT_FLOAT", "tensorShape": {"dim": [{"size": "3"}, {"size": "3"}, {"size": "64"}, {"size": "64"}]}}}, "dtype": {"type": "DT_FLOAT"}}}, {"name": "StatefulPartitionedCall/sequential_1/keras_layer/StatefulPartitionedCall/StatefulPartitionedCall/StatefulPartitionedCall/predict/resnet_v2_50/block1/unit_1/bottleneck_v2/conv2/Conv2D_bn_offset", "op": "Const", "attr": {"value": {"tensor": {"dtype": "DT_FLOAT", "tensorShape": {"dim": [{"size": "64"}]}}}, "dtype": {"type": "DT_FLOAT"}}}, {"name": "StatefulPartitionedCall/sequential_1/keras_layer/StatefulPartitionedCall/StatefulPartitionedCall/StatefulPartitionedCall/predict/resnet_v2_50/block1/unit_2/bottleneck_v2/conv1/Conv2D_weights", "op": "Const", "attr": {"value": {"tensor": {"dtype": "DT_FLOAT", "tensorShape": {"dim": [{"size": "1"}, {"size": "1"}, {"size": "256"}, {"size": "64"}]}}}, "dtype": {"type": "DT_FLOAT"}}}, {"name": "StatefulPartitionedCall/sequential_1/keras_layer/StatefulPartitionedCall/StatefulPartitionedCall/StatefulPartitionedCall/predict/resnet_v2_50/block1/unit_2/bottleneck_v2/conv1/Conv2D_bn_offset", "op": "Const", "attr": {"dtype": {"type": "DT_FLOAT"}, "value": {"tensor": {"dtype": "DT_FLOAT", "tensorShape": {"dim": [{"size": "64"}]}}}}}, {"name": "StatefulPartitionedCall/sequential_1/keras_layer/StatefulPartitionedCall/StatefulPartitionedCall/StatefulPartitionedCall/predict/resnet_v2_50/block1/unit_2/bottleneck_v2/conv2/Conv2D_weights", "op": "Const", "attr": {"dtype": {"type": "DT_FLOAT"}, "value": {"tensor": {"dtype": "DT_FLOAT", "tensorShape": {"dim": [{"size": "3"}, {"size": "3"}, {"size": "64"}, {"size": "64"}]}}}}}, {"name": "StatefulPartitionedCall/sequential_1/keras_layer/StatefulPartitionedCall/StatefulPartitionedCall/StatefulPartitionedCall/predict/resnet_v2_50/block1/unit_2/bottleneck_v2/conv2/Conv2D_bn_offset", "op": "Const", "attr": {"dtype": {"type": "DT_FLOAT"}, "value": {"tensor": {"dtype": "DT_FLOAT", "tensorShape": {"dim": [{"size": "64"}]}}}}}, {"name": "StatefulPartitionedCall/sequential_1/keras_layer/StatefulPartitionedCall/StatefulPartitionedCall/StatefulPartitionedCall/predict/resnet_v2_50/block1/unit_3/bottleneck_v2/conv1/Conv2D_weights", "op": "Const", "attr": {"dtype": {"type": "DT_FLOAT"}, "value": {"tensor": {"dtype": "DT_FLOAT", "tensorShape": {"dim": [{"size": "1"}, {"size": "1"}, {"size": "256"}, {"size": "64"}]}}}}}, {"name": "StatefulPartitionedCall/sequential_1/keras_layer/StatefulPartitionedCall/StatefulPartitionedCall/StatefulPartitionedCall/predict/resnet_v2_50/block1/unit_3/bottleneck_v2/conv1/Conv2D_bn_offset", "op": "Const", "attr": {"value": {"tensor": {"dtype": "DT_FLOAT", "tensorShape": {"dim": [{"size": "64"}]}}}, "dtype": {"type": "DT_FLOAT"}}}, {"name": "StatefulPartitionedCall/sequential_1/keras_layer/StatefulPartitionedCall/StatefulPartitionedCall/StatefulPartitionedCall/predict/resnet_v2_50/block1/unit_3/bottleneck_v2/conv2/Conv2D_weights", "op": "Const", "attr": {"value": {"tensor": {"dtype": "DT_FLOAT", "tensorShape": {"dim": [{"size": "3"}, {"size": "3"}, {"size": "64"}, {"size": "64"}]}}}, "dtype": {"type": "DT_FLOAT"}}}, {"name": "StatefulPartitionedCall/sequential_1/keras_layer/StatefulPartitionedCall/StatefulPartitionedCall/StatefulPartitionedCall/predict/resnet_v2_50/block1/unit_3/bottleneck_v2/conv2/Conv2D_bn_offset", "op": "Const", "attr": {"value": {"tensor": {"dtype": "DT_FLOAT", "tensorShape": {"dim": [{"size": "64"}]}}}, "dtype": {"type": "DT_FLOAT"}}}, {"name": "StatefulPartitionedCall/sequential_1/keras_layer/StatefulPartitionedCall/StatefulPartitionedCall/StatefulPartitionedCall/predict/resnet_v2_50/block2/unit_1/bottleneck_v2/conv1/Conv2D_weights", "op": "Const", "attr": {"dtype": {"type": "DT_FLOAT"}, "value": {"tensor": {"dtype": "DT_FLOAT", "tensorShape": {"dim": [{"size": "1"}, {"size": "1"}, {"size": "256"}, {"size": "128"}]}}}}}, {"name": "StatefulPartitionedCall/sequential_1/keras_layer/StatefulPartitionedCall/StatefulPartitionedCall/StatefulPartitionedCall/predict/resnet_v2_50/block2/unit_1/bottleneck_v2/conv1/Conv2D_bn_offset", "op": "Const", "attr": {"dtype": {"type": "DT_FLOAT"}, "value": {"tensor": {"dtype": "DT_FLOAT", "tensorShape": {"dim": [{"size": "128"}]}}}}}, {"name": "StatefulPartitionedCall/sequential_1/keras_layer/StatefulPartitionedCall/StatefulPartitionedCall/StatefulPartitionedCall/predict/resnet_v2_50/block2/unit_1/bottleneck_v2/conv2/Conv2D_weights", "op": "Const", "attr": {"dtype": {"type": "DT_FLOAT"}, "value": {"tensor": {"dtype": "DT_FLOAT", "tensorShape": {"dim": [{"size": "3"}, {"size": "3"}, {"size": "128"}, {"size": "128"}]}}}}}, {"name": "StatefulPartitionedCall/sequential_1/keras_layer/StatefulPartitionedCall/StatefulPartitionedCall/StatefulPartitionedCall/predict/resnet_v2_50/block2/unit_1/bottleneck_v2/conv2/Conv2D_bn_offset", "op": "Const", "attr": {"value": {"tensor": {"dtype": "DT_FLOAT", "tensorShape": {"dim": [{"size": "128"}]}}}, "dtype": {"type": "DT_FLOAT"}}}, {"name": "StatefulPartitionedCall/sequential_1/keras_layer/StatefulPartitionedCall/StatefulPartitionedCall/StatefulPartitionedCall/predict/resnet_v2_50/block2/unit_2/bottleneck_v2/conv1/Conv2D_weights", "op": "Const", "attr": {"value": {"tensor": {"dtype": "DT_FLOAT", "tensorShape": {"dim": [{"size": "1"}, {"size": "1"}, {"size": "512"}, {"size": "128"}]}}}, "dtype": {"type": "DT_FLOAT"}}}, {"name": "StatefulPartitionedCall/sequential_1/keras_layer/StatefulPartitionedCall/StatefulPartitionedCall/StatefulPartitionedCall/predict/resnet_v2_50/block2/unit_2/bottleneck_v2/conv1/Conv2D_bn_offset", "op": "Const", "attr": {"value": {"tensor": {"dtype": "DT_FLOAT", "tensorShape": {"dim": [{"size": "128"}]}}}, "dtype": {"type": "DT_FLOAT"}}}, {"name": "StatefulPartitionedCall/sequential_1/keras_layer/StatefulPartitionedCall/StatefulPartitionedCall/StatefulPartitionedCall/predict/resnet_v2_50/block2/unit_2/bottleneck_v2/conv2/Conv2D_weights", "op": "Const", "attr": {"dtype": {"type": "DT_FLOAT"}, "value": {"tensor": {"dtype": "DT_FLOAT", "tensorShape": {"dim": [{"size": "3"}, {"size": "3"}, {"size": "128"}, {"size": "128"}]}}}}}, {"name": "StatefulPartitionedCall/sequential_1/keras_layer/StatefulPartitionedCall/StatefulPartitionedCall/StatefulPartitionedCall/predict/resnet_v2_50/block2/unit_2/bottleneck_v2/conv2/Conv2D_bn_offset", "op": "Const", "attr": {"dtype": {"type": "DT_FLOAT"}, "value": {"tensor": {"dtype": "DT_FLOAT", "tensorShape": {"dim": [{"size": "128"}]}}}}}, {"name": "StatefulPartitionedCall/sequential_1/keras_layer/StatefulPartitionedCall/StatefulPartitionedCall/StatefulPartitionedCall/predict/resnet_v2_50/block2/unit_3/bottleneck_v2/conv1/Conv2D_weights", "op": "Const", "attr": {"value": {"tensor": {"dtype": "DT_FLOAT", "tensorShape": {"dim": [{"size": "1"}, {"size": "1"}, {"size": "512"}, {"size": "128"}]}}}, "dtype": {"type": "DT_FLOAT"}}}, {"name": "StatefulPartitionedCall/sequential_1/keras_layer/StatefulPartitionedCall/StatefulPartitionedCall/StatefulPartitionedCall/predict/resnet_v2_50/block2/unit_3/bottleneck_v2/conv1/Conv2D_bn_offset", "op": "Const", "attr": {"dtype": {"type": "DT_FLOAT"}, "value": {"tensor": {"dtype": "DT_FLOAT", "tensorShape": {"dim": [{"size": "128"}]}}}}}, {"name": "StatefulPartitionedCall/sequential_1/keras_layer/StatefulPartitionedCall/StatefulPartitionedCall/StatefulPartitionedCall/predict/resnet_v2_50/block2/unit_3/bottleneck_v2/conv2/Conv2D_weights", "op": "Const", "attr": {"dtype": {"type": "DT_FLOAT"}, "value": {"tensor": {"dtype": "DT_FLOAT", "tensorShape": {"dim": [{"size": "3"}, {"size": "3"}, {"size": "128"}, {"size": "128"}]}}}}}, {"name": "StatefulPartitionedCall/sequential_1/keras_layer/StatefulPartitionedCall/StatefulPartitionedCall/StatefulPartitionedCall/predict/resnet_v2_50/block2/unit_3/bottleneck_v2/conv2/Conv2D_bn_offset", "op": "Const", "attr": {"value": {"tensor": {"dtype": "DT_FLOAT", "tensorShape": {"dim": [{"size": "128"}]}}}, "dtype": {"type": "DT_FLOAT"}}}, {"name": "StatefulPartitionedCall/sequential_1/keras_layer/StatefulPartitionedCall/StatefulPartitionedCall/StatefulPartitionedCall/predict/resnet_v2_50/block2/unit_4/bottleneck_v2/conv1/Conv2D_weights", "op": "Const", "attr": {"value": {"tensor": {"dtype": "DT_FLOAT", "tensorShape": {"dim": [{"size": "1"}, {"size": "1"}, {"size": "512"}, {"size": "128"}]}}}, "dtype": {"type": "DT_FLOAT"}}}, {"name": "StatefulPartitionedCall/sequential_1/keras_layer/StatefulPartitionedCall/StatefulPartitionedCall/StatefulPartitionedCall/predict/resnet_v2_50/block2/unit_4/bottleneck_v2/conv1/Conv2D_bn_offset", "op": "Const", "attr": {"value": {"tensor": {"dtype": "DT_FLOAT", "tensorShape": {"dim": [{"size": "128"}]}}}, "dtype": {"type": "DT_FLOAT"}}}, {"name": "StatefulPartitionedCall/sequential_1/keras_layer/StatefulPartitionedCall/StatefulPartitionedCall/StatefulPartitionedCall/predict/resnet_v2_50/block2/unit_4/bottleneck_v2/conv2/Conv2D_weights", "op": "Const", "attr": {"dtype": {"type": "DT_FLOAT"}, "value": {"tensor": {"dtype": "DT_FLOAT", "tensorShape": {"dim": [{"size": "3"}, {"size": "3"}, {"size": "128"}, {"size": "128"}]}}}}}, {"name": "StatefulPartitionedCall/sequential_1/keras_layer/StatefulPartitionedCall/StatefulPartitionedCall/StatefulPartitionedCall/predict/resnet_v2_50/block2/unit_4/bottleneck_v2/conv2/Conv2D_bn_offset", "op": "Const", "attr": {"dtype": {"type": "DT_FLOAT"}, "value": {"tensor": {"dtype": "DT_FLOAT", "tensorShape": {"dim": [{"size": "128"}]}}}}}, {"name": "StatefulPartitionedCall/sequential_1/keras_layer/StatefulPartitionedCall/StatefulPartitionedCall/StatefulPartitionedCall/predict/resnet_v2_50/block3/unit_1/bottleneck_v2/conv1/Conv2D_weights", "op": "Const", "attr": {"value": {"tensor": {"dtype": "DT_FLOAT", "tensorShape": {"dim": [{"size": "1"}, {"size": "1"}, {"size": "512"}, {"size": "256"}]}}}, "dtype": {"type": "DT_FLOAT"}}}, {"name": "StatefulPartitionedCall/sequential_1/keras_layer/StatefulPartitionedCall/StatefulPartitionedCall/StatefulPartitionedCall/predict/resnet_v2_50/block3/unit_1/bottleneck_v2/conv1/Conv2D_bn_offset", "op": "Const", "attr": {"value": {"tensor": {"dtype": "DT_FLOAT", "tensorShape": {"dim": [{"size": "256"}]}}}, "dtype": {"type": "DT_FLOAT"}}}, {"name": "StatefulPartitionedCall/sequential_1/keras_layer/StatefulPartitionedCall/StatefulPartitionedCall/StatefulPartitionedCall/predict/resnet_v2_50/block3/unit_1/bottleneck_v2/conv2/Conv2D_weights", "op": "Const", "attr": {"value": {"tensor": {"dtype": "DT_FLOAT", "tensorShape": {"dim": [{"size": "3"}, {"size": "3"}, {"size": "256"}, {"size": "256"}]}}}, "dtype": {"type": "DT_FLOAT"}}}, {"name": "StatefulPartitionedCall/sequential_1/keras_layer/StatefulPartitionedCall/StatefulPartitionedCall/StatefulPartitionedCall/predict/resnet_v2_50/block3/unit_1/bottleneck_v2/conv2/Conv2D_bn_offset", "op": "Const", "attr": {"value": {"tensor": {"dtype": "DT_FLOAT", "tensorShape": {"dim": [{"size": "256"}]}}}, "dtype": {"type": "DT_FLOAT"}}}, {"name": "StatefulPartitionedCall/sequential_1/keras_layer/StatefulPartitionedCall/StatefulPartitionedCall/StatefulPartitionedCall/predict/resnet_v2_50/block3/unit_2/bottleneck_v2/conv1/Conv2D_weights", "op": "Const", "attr": {"value": {"tensor": {"dtype": "DT_FLOAT", "tensorShape": {"dim": [{"size": "1"}, {"size": "1"}, {"size": "1024"}, {"size": "256"}]}}}, "dtype": {"type": "DT_FLOAT"}}}, {"name": "StatefulPartitionedCall/sequential_1/keras_layer/StatefulPartitionedCall/StatefulPartitionedCall/StatefulPartitionedCall/predict/resnet_v2_50/block3/unit_2/bottleneck_v2/conv1/Conv2D_bn_offset", "op": "Const", "attr": {"dtype": {"type": "DT_FLOAT"}, "value": {"tensor": {"dtype": "DT_FLOAT", "tensorShape": {"dim": [{"size": "256"}]}}}}}, {"name": "StatefulPartitionedCall/sequential_1/keras_layer/StatefulPartitionedCall/StatefulPartitionedCall/StatefulPartitionedCall/predict/resnet_v2_50/block3/unit_2/bottleneck_v2/conv2/Conv2D_weights", "op": "Const", "attr": {"dtype": {"type": "DT_FLOAT"}, "value": {"tensor": {"dtype": "DT_FLOAT", "tensorShape": {"dim": [{"size": "3"}, {"size": "3"}, {"size": "256"}, {"size": "256"}]}}}}}, {"name": "StatefulPartitionedCall/sequential_1/keras_layer/StatefulPartitionedCall/StatefulPartitionedCall/StatefulPartitionedCall/predict/resnet_v2_50/block3/unit_2/bottleneck_v2/conv2/Conv2D_bn_offset", "op": "Const", "attr": {"dtype": {"type": "DT_FLOAT"}, "value": {"tensor": {"dtype": "DT_FLOAT", "tensorShape": {"dim": [{"size": "256"}]}}}}}, {"name": "StatefulPartitionedCall/sequential_1/keras_layer/StatefulPartitionedCall/StatefulPartitionedCall/StatefulPartitionedCall/predict/resnet_v2_50/block3/unit_3/bottleneck_v2/conv1/Conv2D_weights", "op": "Const", "attr": {"dtype": {"type": "DT_FLOAT"}, "value": {"tensor": {"dtype": "DT_FLOAT", "tensorShape": {"dim": [{"size": "1"}, {"size": "1"}, {"size": "1024"}, {"size": "256"}]}}}}}, {"name": "StatefulPartitionedCall/sequential_1/keras_layer/StatefulPartitionedCall/StatefulPartitionedCall/StatefulPartitionedCall/predict/resnet_v2_50/block3/unit_3/bottleneck_v2/conv1/Conv2D_bn_offset", "op": "Const", "attr": {"value": {"tensor": {"dtype": "DT_FLOAT", "tensorShape": {"dim": [{"size": "256"}]}}}, "dtype": {"type": "DT_FLOAT"}}}, {"name": "StatefulPartitionedCall/sequential_1/keras_layer/StatefulPartitionedCall/StatefulPartitionedCall/StatefulPartitionedCall/predict/resnet_v2_50/block3/unit_3/bottleneck_v2/conv2/Conv2D_weights", "op": "Const", "attr": {"dtype": {"type": "DT_FLOAT"}, "value": {"tensor": {"dtype": "DT_FLOAT", "tensorShape": {"dim": [{"size": "3"}, {"size": "3"}, {"size": "256"}, {"size": "256"}]}}}}}, {"name": "StatefulPartitionedCall/sequential_1/keras_layer/StatefulPartitionedCall/StatefulPartitionedCall/StatefulPartitionedCall/predict/resnet_v2_50/block3/unit_3/bottleneck_v2/conv2/Conv2D_bn_offset", "op": "Const", "attr": {"dtype": {"type": "DT_FLOAT"}, "value": {"tensor": {"dtype": "DT_FLOAT", "tensorShape": {"dim": [{"size": "256"}]}}}}}, {"name": "StatefulPartitionedCall/sequential_1/keras_layer/StatefulPartitionedCall/StatefulPartitionedCall/StatefulPartitionedCall/predict/resnet_v2_50/block3/unit_4/bottleneck_v2/conv1/Conv2D_weights", "op": "Const", "attr": {"dtype": {"type": "DT_FLOAT"}, "value": {"tensor": {"dtype": "DT_FLOAT", "tensorShape": {"dim": [{"size": "1"}, {"size": "1"}, {"size": "1024"}, {"size": "256"}]}}}}}, {"name": "StatefulPartitionedCall/sequential_1/keras_layer/StatefulPartitionedCall/StatefulPartitionedCall/StatefulPartitionedCall/predict/resnet_v2_50/block3/unit_4/bottleneck_v2/conv1/Conv2D_bn_offset", "op": "Const", "attr": {"value": {"tensor": {"dtype": "DT_FLOAT", "tensorShape": {"dim": [{"size": "256"}]}}}, "dtype": {"type": "DT_FLOAT"}}}, {"name": "StatefulPartitionedCall/sequential_1/keras_layer/StatefulPartitionedCall/StatefulPartitionedCall/StatefulPartitionedCall/predict/resnet_v2_50/block3/unit_4/bottleneck_v2/conv2/Conv2D_weights", "op": "Const", "attr": {"dtype": {"type": "DT_FLOAT"}, "value": {"tensor": {"dtype": "DT_FLOAT", "tensorShape": {"dim": [{"size": "3"}, {"size": "3"}, {"size": "256"}, {"size": "256"}]}}}}}, {"name": "StatefulPartitionedCall/sequential_1/keras_layer/StatefulPartitionedCall/StatefulPartitionedCall/StatefulPartitionedCall/predict/resnet_v2_50/block3/unit_4/bottleneck_v2/conv2/Conv2D_bn_offset", "op": "Const", "attr": {"value": {"tensor": {"dtype": "DT_FLOAT", "tensorShape": {"dim": [{"size": "256"}]}}}, "dtype": {"type": "DT_FLOAT"}}}, {"name": "StatefulPartitionedCall/sequential_1/keras_layer/StatefulPartitionedCall/StatefulPartitionedCall/StatefulPartitionedCall/predict/resnet_v2_50/block3/unit_5/bottleneck_v2/conv1/Conv2D_weights", "op": "Const", "attr": {"dtype": {"type": "DT_FLOAT"}, "value": {"tensor": {"dtype": "DT_FLOAT", "tensorShape": {"dim": [{"size": "1"}, {"size": "1"}, {"size": "1024"}, {"size": "256"}]}}}}}, {"name": "StatefulPartitionedCall/sequential_1/keras_layer/StatefulPartitionedCall/StatefulPartitionedCall/StatefulPartitionedCall/predict/resnet_v2_50/block3/unit_5/bottleneck_v2/conv1/Conv2D_bn_offset", "op": "Const", "attr": {"dtype": {"type": "DT_FLOAT"}, "value": {"tensor": {"dtype": "DT_FLOAT", "tensorShape": {"dim": [{"size": "256"}]}}}}}, {"name": "StatefulPartitionedCall/sequential_1/keras_layer/StatefulPartitionedCall/StatefulPartitionedCall/StatefulPartitionedCall/predict/resnet_v2_50/block3/unit_5/bottleneck_v2/conv2/Conv2D_weights", "op": "Const", "attr": {"dtype": {"type": "DT_FLOAT"}, "value": {"tensor": {"dtype": "DT_FLOAT", "tensorShape": {"dim": [{"size": "3"}, {"size": "3"}, {"size": "256"}, {"size": "256"}]}}}}}, {"name": "StatefulPartitionedCall/sequential_1/keras_layer/StatefulPartitionedCall/StatefulPartitionedCall/StatefulPartitionedCall/predict/resnet_v2_50/block3/unit_5/bottleneck_v2/conv2/Conv2D_bn_offset", "op": "Const", "attr": {"value": {"tensor": {"dtype": "DT_FLOAT", "tensorShape": {"dim": [{"size": "256"}]}}}, "dtype": {"type": "DT_FLOAT"}}}, {"name": "StatefulPartitionedCall/sequential_1/keras_layer/StatefulPartitionedCall/StatefulPartitionedCall/StatefulPartitionedCall/predict/resnet_v2_50/block3/unit_6/bottleneck_v2/conv1/Conv2D_weights", "op": "Const", "attr": {"value": {"tensor": {"dtype": "DT_FLOAT", "tensorShape": {"dim": [{"size": "1"}, {"size": "1"}, {"size": "1024"}, {"size": "256"}]}}}, "dtype": {"type": "DT_FLOAT"}}}, {"name": "StatefulPartitionedCall/sequential_1/keras_layer/StatefulPartitionedCall/StatefulPartitionedCall/StatefulPartitionedCall/predict/resnet_v2_50/block3/unit_6/bottleneck_v2/conv1/Conv2D_bn_offset", "op": "Const", "attr": {"value": {"tensor": {"dtype": "DT_FLOAT", "tensorShape": {"dim": [{"size": "256"}]}}}, "dtype": {"type": "DT_FLOAT"}}}, {"name": "StatefulPartitionedCall/sequential_1/keras_layer/StatefulPartitionedCall/StatefulPartitionedCall/StatefulPartitionedCall/predict/resnet_v2_50/block3/unit_6/bottleneck_v2/conv2/Conv2D_weights", "op": "Const", "attr": {"value": {"tensor": {"dtype": "DT_FLOAT", "tensorShape": {"dim": [{"size": "3"}, {"size": "3"}, {"size": "256"}, {"size": "256"}]}}}, "dtype": {"type": "DT_FLOAT"}}}, {"name": "StatefulPartitionedCall/sequential_1/keras_layer/StatefulPartitionedCall/StatefulPartitionedCall/StatefulPartitionedCall/predict/resnet_v2_50/block3/unit_6/bottleneck_v2/conv2/Conv2D_bn_offset", "op": "Const", "attr": {"value": {"tensor": {"dtype": "DT_FLOAT", "tensorShape": {"dim": [{"size": "256"}]}}}, "dtype": {"type": "DT_FLOAT"}}}, {"name": "StatefulPartitionedCall/sequential_1/keras_layer/StatefulPartitionedCall/StatefulPartitionedCall/StatefulPartitionedCall/predict/resnet_v2_50/block4/unit_1/bottleneck_v2/conv1/Conv2D_weights", "op": "Const", "attr": {"value": {"tensor": {"dtype": "DT_FLOAT", "tensorShape": {"dim": [{"size": "1"}, {"size": "1"}, {"size": "1024"}, {"size": "512"}]}}}, "dtype": {"type": "DT_FLOAT"}}}, {"name": "StatefulPartitionedCall/sequential_1/keras_layer/StatefulPartitionedCall/StatefulPartitionedCall/StatefulPartitionedCall/predict/resnet_v2_50/block4/unit_1/bottleneck_v2/conv1/Conv2D_bn_offset", "op": "Const", "attr": {"dtype": {"type": "DT_FLOAT"}, "value": {"tensor": {"dtype": "DT_FLOAT", "tensorShape": {"dim": [{"size": "512"}]}}}}}, {"name": "StatefulPartitionedCall/sequential_1/keras_layer/StatefulPartitionedCall/StatefulPartitionedCall/StatefulPartitionedCall/predict/resnet_v2_50/block4/unit_1/bottleneck_v2/conv2/Conv2D_weights", "op": "Const", "attr": {"value": {"tensor": {"dtype": "DT_FLOAT", "tensorShape": {"dim": [{"size": "3"}, {"size": "3"}, {"size": "512"}, {"size": "512"}]}}}, "dtype": {"type": "DT_FLOAT"}}}, {"name": "StatefulPartitionedCall/sequential_1/keras_layer/StatefulPartitionedCall/StatefulPartitionedCall/StatefulPartitionedCall/predict/resnet_v2_50/block4/unit_1/bottleneck_v2/conv2/Conv2D_bn_offset", "op": "Const", "attr": {"dtype": {"type": "DT_FLOAT"}, "value": {"tensor": {"dtype": "DT_FLOAT", "tensorShape": {"dim": [{"size": "512"}]}}}}}, {"name": "StatefulPartitionedCall/sequential_1/keras_layer/StatefulPartitionedCall/StatefulPartitionedCall/StatefulPartitionedCall/predict/resnet_v2_50/block4/unit_2/bottleneck_v2/conv1/Conv2D_weights", "op": "Const", "attr": {"dtype": {"type": "DT_FLOAT"}, "value": {"tensor": {"dtype": "DT_FLOAT", "tensorShape": {"dim": [{"size": "1"}, {"size": "1"}, {"size": "2048"}, {"size": "512"}]}}}}}, {"name": "StatefulPartitionedCall/sequential_1/keras_layer/StatefulPartitionedCall/StatefulPartitionedCall/StatefulPartitionedCall/predict/resnet_v2_50/block4/unit_2/bottleneck_v2/conv1/Conv2D_bn_offset", "op": "Const", "attr": {"value": {"tensor": {"dtype": "DT_FLOAT", "tensorShape": {"dim": [{"size": "512"}]}}}, "dtype": {"type": "DT_FLOAT"}}}, {"name": "StatefulPartitionedCall/sequential_1/keras_layer/StatefulPartitionedCall/StatefulPartitionedCall/StatefulPartitionedCall/predict/resnet_v2_50/block4/unit_2/bottleneck_v2/conv2/Conv2D_weights", "op": "Const", "attr": {"value": {"tensor": {"dtype": "DT_FLOAT", "tensorShape": {"dim": [{"size": "3"}, {"size": "3"}, {"size": "512"}, {"size": "512"}]}}}, "dtype": {"type": "DT_FLOAT"}}}, {"name": "StatefulPartitionedCall/sequential_1/keras_layer/StatefulPartitionedCall/StatefulPartitionedCall/StatefulPartitionedCall/predict/resnet_v2_50/block4/unit_2/bottleneck_v2/conv2/Conv2D_bn_offset", "op": "Const", "attr": {"value": {"tensor": {"dtype": "DT_FLOAT", "tensorShape": {"dim": [{"size": "512"}]}}}, "dtype": {"type": "DT_FLOAT"}}}, {"name": "StatefulPartitionedCall/sequential_1/keras_layer/StatefulPartitionedCall/StatefulPartitionedCall/StatefulPartitionedCall/predict/resnet_v2_50/block4/unit_3/bottleneck_v2/conv1/Conv2D_weights", "op": "Const", "attr": {"dtype": {"type": "DT_FLOAT"}, "value": {"tensor": {"dtype": "DT_FLOAT", "tensorShape": {"dim": [{"size": "1"}, {"size": "1"}, {"size": "2048"}, {"size": "512"}]}}}}}, {"name": "StatefulPartitionedCall/sequential_1/keras_layer/StatefulPartitionedCall/StatefulPartitionedCall/StatefulPartitionedCall/predict/resnet_v2_50/block4/unit_3/bottleneck_v2/conv1/Conv2D_bn_offset", "op": "Const", "attr": {"dtype": {"type": "DT_FLOAT"}, "value": {"tensor": {"dtype": "DT_FLOAT", "tensorShape": {"dim": [{"size": "512"}]}}}}}, {"name": "StatefulPartitionedCall/sequential_1/keras_layer/StatefulPartitionedCall/StatefulPartitionedCall/StatefulPartitionedCall/predict/resnet_v2_50/block4/unit_3/bottleneck_v2/conv2/Conv2D_weights", "op": "Const", "attr": {"value": {"tensor": {"dtype": "DT_FLOAT", "tensorShape": {"dim": [{"size": "3"}, {"size": "3"}, {"size": "512"}, {"size": "512"}]}}}, "dtype": {"type": "DT_FLOAT"}}}, {"name": "StatefulPartitionedCall/sequential_1/keras_layer/StatefulPartitionedCall/StatefulPartitionedCall/StatefulPartitionedCall/predict/resnet_v2_50/block4/unit_3/bottleneck_v2/conv2/Conv2D_bn_offset", "op": "Const", "attr": {"value": {"tensor": {"dtype": "DT_FLOAT", "tensorShape": {"dim": [{"size": "512"}]}}}, "dtype": {"type": "DT_FLOAT"}}}, {"name": "Func/StatefulPartitionedCall/sequential_1/keras_layer/StatefulPartitionedCall/StatefulPartitionedCall/StatefulPartitionedCall/input/_1049", "op": "Const", "input": ["^keras_layer_input"], "attr": {"value": {"tensor": {"dtype": "DT_FLOAT", "tensorShape": {"dim": [{"size": "1"}, {"size": "1"}, {"size": "1024"}, {"size": "2048"}]}}}, "dtype": {"type": "DT_FLOAT"}}}, {"name": "Func/StatefulPartitionedCall/sequential_1/keras_layer/StatefulPartitionedCall/StatefulPartitionedCall/StatefulPartitionedCall/input/_1050", "op": "Const", "input": ["^keras_layer_input"], "attr": {"value": {"tensor": {"dtype": "DT_FLOAT", "tensorShape": {"dim": [{"size": "2048"}]}}}, "dtype": {"type": "DT_FLOAT"}}}, {"name": "Func/StatefulPartitionedCall/sequential_1/keras_layer/StatefulPartitionedCall/StatefulPartitionedCall/StatefulPartitionedCall/input/_951", "op": "Const", "input": ["^keras_layer_input"], "attr": {"value": {"tensor": {"dtype": "DT_FLOAT", "tensorShape": {"dim": [{"size": "1"}, {"size": "1"}, {"size": "512"}, {"size": "1024"}]}}}, "dtype": {"type": "DT_FLOAT"}}}, {"name": "Func/StatefulPartitionedCall/sequential_1/keras_layer/StatefulPartitionedCall/StatefulPartitionedCall/StatefulPartitionedCall/input/_952", "op": "Const", "input": ["^keras_layer_input"], "attr": {"dtype": {"type": "DT_FLOAT"}, "value": {"tensor": {"dtype": "DT_FLOAT", "tensorShape": {"dim": [{"size": "1024"}]}}}}}, {"name": "Func/StatefulPartitionedCall/sequential_1/keras_layer/StatefulPartitionedCall/StatefulPartitionedCall/StatefulPartitionedCall/input/_885", "op": "Const", "input": ["^keras_layer_input"], "attr": {"value": {"tensor": {"dtype": "DT_FLOAT", "tensorShape": {"dim": [{"size": "1"}, {"size": "1"}, {"size": "256"}, {"size": "512"}]}}}, "dtype": {"type": "DT_FLOAT"}}}, {"name": "Func/StatefulPartitionedCall/sequential_1/keras_layer/StatefulPartitionedCall/StatefulPartitionedCall/StatefulPartitionedCall/input/_886", "op": "Const", "input": ["^keras_layer_input"], "attr": {"dtype": {"type": "DT_FLOAT"}, "value": {"tensor": {"dtype": "DT_FLOAT", "tensorShape": {"dim": [{"size": "512"}]}}}}}, {"name": "Func/StatefulPartitionedCall/sequential_1/keras_layer/StatefulPartitionedCall/StatefulPartitionedCall/StatefulPartitionedCall/input/_835", "op": "Const", "input": ["^keras_layer_input"], "attr": {"value": {"tensor": {"dtype": "DT_FLOAT", "tensorShape": {"dim": [{"size": "1"}, {"size": "1"}, {"size": "64"}, {"size": "256"}]}}}, "dtype": {"type": "DT_FLOAT"}}}, {"name": "Func/StatefulPartitionedCall/sequential_1/keras_layer/StatefulPartitionedCall/StatefulPartitionedCall/StatefulPartitionedCall/input/_836", "op": "Const", "input": ["^keras_layer_input"], "attr": {"value": {"tensor": {"dtype": "DT_FLOAT", "tensorShape": {"dim": [{"size": "256"}]}}}, "dtype": {"type": "DT_FLOAT"}}}, {"name": "StatefulPartitionedCall/sequential_1/keras_layer/StatefulPartitionedCall/StatefulPartitionedCall/StatefulPartitionedCall/predict/hub_input/Mul/y", "op": "Const", "input": ["^keras_layer_input"], "attr": {"dtype": {"type": "DT_FLOAT"}, "value": {"tensor": {"dtype": "DT_FLOAT", "tensorShape": {}}}}}, {"name": "StatefulPartitionedCall/sequential_1/keras_layer/StatefulPartitionedCall/StatefulPartitionedCall/StatefulPartitionedCall/predict/hub_input/Sub/y", "op": "Const", "input": ["^keras_layer_input"], "attr": {"value": {"tensor": {"dtype": "DT_FLOAT", "tensorShape": {}}}, "dtype": {"type": "DT_FLOAT"}}}, {"name": "StatefulPartitionedCall/sequential_1/keras_layer/StatefulPartitionedCall/StatefulPartitionedCall/StatefulPartitionedCall/predict/resnet_v2_50/Pad/paddings", "op": "Const", "input": ["^keras_layer_input"], "attr": {"value": {"tensor": {"dtype": "DT_INT32", "tensorShape": {"dim": [{"size": "4"}, {"size": "2"}]}}}, "dtype": {"type": "DT_INT32"}}}, {"name": "Func/StatefulPartitionedCall/sequential_1/keras_layer/StatefulPartitionedCall/StatefulPartitionedCall/StatefulPartitionedCall/input/_829", "op": "Const", "input": ["^keras_layer_input"], "attr": {"dtype": {"type": "DT_FLOAT"}, "value": {"tensor": {"dtype": "DT_FLOAT", "tensorShape": {"dim": [{"size": "7"}, {"size": "7"}, {"size": "3"}, {"size": "64"}]}}}}}, {"name": "StatefulPartitionedCall/sequential_1/keras_layer/StatefulPartitionedCall/StatefulPartitionedCall/StatefulPartitionedCall/predict/resnet_v2_50/block3/unit_6/bottleneck_v2/preact/FusedBatchNormV3/Scaled", "op": "Const", "input": ["^keras_layer_input"], "attr": {"value": {"tensor": {"dtype": "DT_FLOAT", "tensorShape": {"dim": [{"size": "1024"}]}}}, "dtype": {"type": "DT_FLOAT"}}}, {"name": "Func/StatefulPartitionedCall/sequential_1/keras_layer/StatefulPartitionedCall/StatefulPartitionedCall/StatefulPartitionedCall/input/_830", "op": "Const", "input": ["^keras_layer_input"], "attr": {"dtype": {"type": "DT_FLOAT"}, "value": {"tensor": {"dtype": "DT_FLOAT", "tensorShape": {"dim": [{"size": "64"}]}}}}}, {"name": "Func/StatefulPartitionedCall/sequential_1/keras_layer/StatefulPartitionedCall/StatefulPartitionedCall/StatefulPartitionedCall/input/_847", "op": "Const", "input": ["^keras_layer_input"], "attr": {"value": {"tensor": {"dtype": "DT_FLOAT", "tensorShape": {"dim": [{"size": "1"}, {"size": "1"}, {"size": "64"}, {"size": "256"}]}}}, "dtype": {"type": "DT_FLOAT"}}}, {"name": "Func/StatefulPartitionedCall/sequential_1/keras_layer/StatefulPartitionedCall/StatefulPartitionedCall/StatefulPartitionedCall/input/_848", "op": "Const", "input": ["^keras_layer_input"], "attr": {"value": {"tensor": {"dtype": "DT_FLOAT", "tensorShape": {"dim": [{"size": "256"}]}}}, "dtype": {"type": "DT_FLOAT"}}}, {"name": "Func/StatefulPartitionedCall/sequential_1/keras_layer/StatefulPartitionedCall/StatefulPartitionedCall/StatefulPartitionedCall/input/_863", "op": "Const", "input": ["^keras_layer_input"], "attr": {"dtype": {"type": "DT_FLOAT"}, "value": {"tensor": {"dtype": "DT_FLOAT", "tensorShape": {"dim": [{"size": "1"}, {"size": "1"}, {"size": "64"}, {"size": "256"}]}}}}}, {"name": "Func/StatefulPartitionedCall/sequential_1/keras_layer/StatefulPartitionedCall/StatefulPartitionedCall/StatefulPartitionedCall/input/_864", "op": "Const", "input": ["^keras_layer_input"], "attr": {"value": {"tensor": {"dtype": "DT_FLOAT", "tensorShape": {"dim": [{"size": "256"}]}}}, "dtype": {"type": "DT_FLOAT"}}}, {"name": "StatefulPartitionedCall/sequential_1/keras_layer/StatefulPartitionedCall/StatefulPartitionedCall/StatefulPartitionedCall/predict/resnet_v2_50/block1/unit_3/bottleneck_v2/Pad/paddings", "op": "Const", "input": ["^keras_layer_input"], "attr": {"dtype": {"type": "DT_INT32"}, "value": {"tensor": {"dtype": "DT_INT32", "tensorShape": {"dim": [{"size": "4"}, {"size": "2"}]}}}}}, {"name": "Func/StatefulPartitionedCall/sequential_1/keras_layer/StatefulPartitionedCall/StatefulPartitionedCall/StatefulPartitionedCall/input/_879", "op": "Const", "input": ["^keras_layer_input"], "attr": {"value": {"tensor": {"dtype": "DT_FLOAT", "tensorShape": {"dim": [{"size": "1"}, {"size": "1"}, {"size": "64"}, {"size": "256"}]}}}, "dtype": {"type": "DT_FLOAT"}}}, {"name": "Func/StatefulPartitionedCall/sequential_1/keras_layer/StatefulPartitionedCall/StatefulPartitionedCall/StatefulPartitionedCall/input/_880", "op": "Const", "input": ["^keras_layer_input"], "attr": {"dtype": {"type": "DT_FLOAT"}, "value": {"tensor": {"dtype": "DT_FLOAT", "tensorShape": {"dim": [{"size": "256"}]}}}}}, {"name": "Func/StatefulPartitionedCall/sequential_1/keras_layer/StatefulPartitionedCall/StatefulPartitionedCall/StatefulPartitionedCall/input/_897", "op": "Const", "input": ["^keras_layer_input"], "attr": {"dtype": {"type": "DT_FLOAT"}, "value": {"tensor": {"dtype": "DT_FLOAT", "tensorShape": {"dim": [{"size": "1"}, {"size": "1"}, {"size": "128"}, {"size": "512"}]}}}}}, {"name": "Func/StatefulPartitionedCall/sequential_1/keras_layer/StatefulPartitionedCall/StatefulPartitionedCall/StatefulPartitionedCall/input/_898", "op": "Const", "input": ["^keras_layer_input"], "attr": {"dtype": {"type": "DT_FLOAT"}, "value": {"tensor": {"dtype": "DT_FLOAT", "tensorShape": {"dim": [{"size": "512"}]}}}}}, {"name": "Func/StatefulPartitionedCall/sequential_1/keras_layer/StatefulPartitionedCall/StatefulPartitionedCall/StatefulPartitionedCall/input/_913", "op": "Const", "input": ["^keras_layer_input"], "attr": {"value": {"tensor": {"dtype": "DT_FLOAT", "tensorShape": {"dim": [{"size": "1"}, {"size": "1"}, {"size": "128"}, {"size": "512"}]}}}, "dtype": {"type": "DT_FLOAT"}}}, {"name": "Func/StatefulPartitionedCall/sequential_1/keras_layer/StatefulPartitionedCall/StatefulPartitionedCall/StatefulPartitionedCall/input/_914", "op": "Const", "input": ["^keras_layer_input"], "attr": {"dtype": {"type": "DT_FLOAT"}, "value": {"tensor": {"dtype": "DT_FLOAT", "tensorShape": {"dim": [{"size": "512"}]}}}}}, {"name": "Func/StatefulPartitionedCall/sequential_1/keras_layer/StatefulPartitionedCall/StatefulPartitionedCall/StatefulPartitionedCall/input/_929", "op": "Const", "input": ["^keras_layer_input"], "attr": {"dtype": {"type": "DT_FLOAT"}, "value": {"tensor": {"dtype": "DT_FLOAT", "tensorShape": {"dim": [{"size": "1"}, {"size": "1"}, {"size": "128"}, {"size": "512"}]}}}}}, {"name": "Func/StatefulPartitionedCall/sequential_1/keras_layer/StatefulPartitionedCall/StatefulPartitionedCall/StatefulPartitionedCall/input/_930", "op": "Const", "input": ["^keras_layer_input"], "attr": {"dtype": {"type": "DT_FLOAT"}, "value": {"tensor": {"dtype": "DT_FLOAT", "tensorShape": {"dim": [{"size": "512"}]}}}}}, {"name": "StatefulPartitionedCall/sequential_1/keras_layer/StatefulPartitionedCall/StatefulPartitionedCall/StatefulPartitionedCall/predict/resnet_v2_50/block2/unit_4/bottleneck_v2/Pad/paddings", "op": "Const", "input": ["^keras_layer_input"], "attr": {"dtype": {"type": "DT_INT32"}, "value": {"tensor": {"dtype": "DT_INT32", "tensorShape": {"dim": [{"size": "4"}, {"size": "2"}]}}}}}, {"name": "Func/StatefulPartitionedCall/sequential_1/keras_layer/StatefulPartitionedCall/StatefulPartitionedCall/StatefulPartitionedCall/input/_945", "op": "Const", "input": ["^keras_layer_input"], "attr": {"value": {"tensor": {"dtype": "DT_FLOAT", "tensorShape": {"dim": [{"size": "1"}, {"size": "1"}, {"size": "128"}, {"size": "512"}]}}}, "dtype": {"type": "DT_FLOAT"}}}, {"name": "Func/StatefulPartitionedCall/sequential_1/keras_layer/StatefulPartitionedCall/StatefulPartitionedCall/StatefulPartitionedCall/input/_946", "op": "Const", "input": ["^keras_layer_input"], "attr": {"value": {"tensor": {"dtype": "DT_FLOAT", "tensorShape": {"dim": [{"size": "512"}]}}}, "dtype": {"type": "DT_FLOAT"}}}, {"name": "Func/StatefulPartitionedCall/sequential_1/keras_layer/StatefulPartitionedCall/StatefulPartitionedCall/StatefulPartitionedCall/input/_963", "op": "Const", "input": ["^keras_layer_input"], "attr": {"value": {"tensor": {"dtype": "DT_FLOAT", "tensorShape": {"dim": [{"size": "1"}, {"size": "1"}, {"size": "256"}, {"size": "1024"}]}}}, "dtype": {"type": "DT_FLOAT"}}}, {"name": "Func/StatefulPartitionedCall/sequential_1/keras_layer/StatefulPartitionedCall/StatefulPartitionedCall/StatefulPartitionedCall/input/_964", "op": "Const", "input": ["^keras_layer_input"], "attr": {"value": {"tensor": {"dtype": "DT_FLOAT", "tensorShape": {"dim": [{"size": "1024"}]}}}, "dtype": {"type": "DT_FLOAT"}}}, {"name": "Func/StatefulPartitionedCall/sequential_1/keras_layer/StatefulPartitionedCall/StatefulPartitionedCall/StatefulPartitionedCall/input/_979", "op": "Const", "input": ["^keras_layer_input"], "attr": {"dtype": {"type": "DT_FLOAT"}, "value": {"tensor": {"dtype": "DT_FLOAT", "tensorShape": {"dim": [{"size": "1"}, {"size": "1"}, {"size": "256"}, {"size": "1024"}]}}}}}, {"name": "Func/StatefulPartitionedCall/sequential_1/keras_layer/StatefulPartitionedCall/StatefulPartitionedCall/StatefulPartitionedCall/input/_980", "op": "Const", "input": ["^keras_layer_input"], "attr": {"value": {"tensor": {"dtype": "DT_FLOAT", "tensorShape": {"dim": [{"size": "1024"}]}}}, "dtype": {"type": "DT_FLOAT"}}}, {"name": "Func/StatefulPartitionedCall/sequential_1/keras_layer/StatefulPartitionedCall/StatefulPartitionedCall/StatefulPartitionedCall/input/_995", "op": "Const", "input": ["^keras_layer_input"], "attr": {"value": {"tensor": {"dtype": "DT_FLOAT", "tensorShape": {"dim": [{"size": "1"}, {"size": "1"}, {"size": "256"}, {"size": "1024"}]}}}, "dtype": {"type": "DT_FLOAT"}}}, {"name": "Func/StatefulPartitionedCall/sequential_1/keras_layer/StatefulPartitionedCall/StatefulPartitionedCall/StatefulPartitionedCall/input/_996", "op": "Const", "input": ["^keras_layer_input"], "attr": {"dtype": {"type": "DT_FLOAT"}, "value": {"tensor": {"dtype": "DT_FLOAT", "tensorShape": {"dim": [{"size": "1024"}]}}}}}, {"name": "Func/StatefulPartitionedCall/sequential_1/keras_layer/StatefulPartitionedCall/StatefulPartitionedCall/StatefulPartitionedCall/input/_1011", "op": "Const", "input": ["^keras_layer_input"], "attr": {"value": {"tensor": {"dtype": "DT_FLOAT", "tensorShape": {"dim": [{"size": "1"}, {"size": "1"}, {"size": "256"}, {"size": "1024"}]}}}, "dtype": {"type": "DT_FLOAT"}}}, {"name": "Func/StatefulPartitionedCall/sequential_1/keras_layer/StatefulPartitionedCall/StatefulPartitionedCall/StatefulPartitionedCall/input/_1012", "op": "Const", "input": ["^keras_layer_input"], "attr": {"value": {"tensor": {"dtype": "DT_FLOAT", "tensorShape": {"dim": [{"size": "1024"}]}}}, "dtype": {"type": "DT_FLOAT"}}}, {"name": "Func/StatefulPartitionedCall/sequential_1/keras_layer/StatefulPartitionedCall/StatefulPartitionedCall/StatefulPartitionedCall/input/_1027", "op": "Const", "input": ["^keras_layer_input"], "attr": {"value": {"tensor": {"dtype": "DT_FLOAT", "tensorShape": {"dim": [{"size": "1"}, {"size": "1"}, {"size": "256"}, {"size": "1024"}]}}}, "dtype": {"type": "DT_FLOAT"}}}, {"name": "Func/StatefulPartitionedCall/sequential_1/keras_layer/StatefulPartitionedCall/StatefulPartitionedCall/StatefulPartitionedCall/input/_1028", "op": "Const", "input": ["^keras_layer_input"], "attr": {"dtype": {"type": "DT_FLOAT"}, "value": {"tensor": {"dtype": "DT_FLOAT", "tensorShape": {"dim": [{"size": "1024"}]}}}}}, {"name": "StatefulPartitionedCall/sequential_1/keras_layer/StatefulPartitionedCall/StatefulPartitionedCall/StatefulPartitionedCall/predict/resnet_v2_50/block3/unit_6/bottleneck_v2/Pad/paddings", "op": "Const", "input": ["^keras_layer_input"], "attr": {"dtype": {"type": "DT_INT32"}, "value": {"tensor": {"dtype": "DT_INT32", "tensorShape": {"dim": [{"size": "4"}, {"size": "2"}]}}}}}, {"name": "Func/StatefulPartitionedCall/sequential_1/keras_layer/StatefulPartitionedCall/StatefulPartitionedCall/StatefulPartitionedCall/input/_1043", "op": "Const", "input": ["^keras_layer_input"], "attr": {"dtype": {"type": "DT_FLOAT"}, "value": {"tensor": {"dtype": "DT_FLOAT", "tensorShape": {"dim": [{"size": "1"}, {"size": "1"}, {"size": "256"}, {"size": "1024"}]}}}}}, {"name": "Func/StatefulPartitionedCall/sequential_1/keras_layer/StatefulPartitionedCall/StatefulPartitionedCall/StatefulPartitionedCall/input/_1044", "op": "Const", "input": ["^keras_layer_input"], "attr": {"value": {"tensor": {"dtype": "DT_FLOAT", "tensorShape": {"dim": [{"size": "1024"}]}}}, "dtype": {"type": "DT_FLOAT"}}}, {"name": "Func/StatefulPartitionedCall/sequential_1/keras_layer/StatefulPartitionedCall/StatefulPartitionedCall/StatefulPartitionedCall/input/_1061", "op": "Const", "input": ["^keras_layer_input"], "attr": {"value": {"tensor": {"dtype": "DT_FLOAT", "tensorShape": {"dim": [{"size": "1"}, {"size": "1"}, {"size": "512"}, {"size": "2048"}]}}}, "dtype": {"type": "DT_FLOAT"}}}, {"name": "Func/StatefulPartitionedCall/sequential_1/keras_layer/StatefulPartitionedCall/StatefulPartitionedCall/StatefulPartitionedCall/input/_1062", "op": "Const", "input": ["^keras_layer_input"], "attr": {"value": {"tensor": {"dtype": "DT_FLOAT", "tensorShape": {"dim": [{"size": "2048"}]}}}, "dtype": {"type": "DT_FLOAT"}}}, {"name": "Func/StatefulPartitionedCall/sequential_1/keras_layer/StatefulPartitionedCall/StatefulPartitionedCall/StatefulPartitionedCall/input/_1077", "op": "Const", "input": ["^keras_layer_input"], "attr": {"value": {"tensor": {"dtype": "DT_FLOAT", "tensorShape": {"dim": [{"size": "1"}, {"size": "1"}, {"size": "512"}, {"size": "2048"}]}}}, "dtype": {"type": "DT_FLOAT"}}}, {"name": "Func/StatefulPartitionedCall/sequential_1/keras_layer/StatefulPartitionedCall/StatefulPartitionedCall/StatefulPartitionedCall/input/_1078", "op": "Const", "input": ["^keras_layer_input"], "attr": {"value": {"tensor": {"dtype": "DT_FLOAT", "tensorShape": {"dim": [{"size": "2048"}]}}}, "dtype": {"type": "DT_FLOAT"}}}, {"name": "Func/StatefulPartitionedCall/sequential_1/keras_layer/StatefulPartitionedCall/StatefulPartitionedCall/StatefulPartitionedCall/input/_1093", "op": "Const", "input": ["^keras_layer_input"], "attr": {"value": {"tensor": {"dtype": "DT_FLOAT", "tensorShape": {"dim": [{"size": "1"}, {"size": "1"}, {"size": "512"}, {"size": "2048"}]}}}, "dtype": {"type": "DT_FLOAT"}}}, {"name": "Func/StatefulPartitionedCall/sequential_1/keras_layer/StatefulPartitionedCall/StatefulPartitionedCall/StatefulPartitionedCall/input/_1094", "op": "Const", "input": ["^keras_layer_input"], "attr": {"dtype": {"type": "DT_FLOAT"}, "value": {"tensor": {"dtype": "DT_FLOAT", "tensorShape": {"dim": [{"size": "2048"}]}}}}}, {"name": "StatefulPartitionedCall/sequential_1/keras_layer/StatefulPartitionedCall/StatefulPartitionedCall/StatefulPartitionedCall/predict/resnet_v2_50/pool5/reduction_indices", "op": "Const", "input": ["^keras_layer_input"], "attr": {"dtype": {"type": "DT_INT32"}, "value": {"tensor": {"dtype": "DT_INT32", "tensorShape": {"dim": [{"size": "2"}]}}}}}, {"name": "StatefulPartitionedCall/sequential_1/keras_layer/StatefulPartitionedCall/StatefulPartitionedCall/StatefulPartitionedCall/predict/resnet_v2_50/block3/unit_6/bottleneck_v2/preact/FusedBatchNormV3/Offset", "op": "Const", "input": ["^keras_layer_input"], "attr": {"value": {"tensor": {"dtype": "DT_FLOAT", "tensorShape": {"dim": [{"size": "1024"}]}}}, "dtype": {"type": "DT_FLOAT"}}}, {"name": "StatefulPartitionedCall/sequential_1/keras_layer/StatefulPartitionedCall/StatefulPartitionedCall/StatefulPartitionedCall/predict/resnet_v2_50/block3/unit_5/bottleneck_v2/preact/FusedBatchNormV3/Scaled", "op": "Const", "input": ["^keras_layer_input"], "attr": {"dtype": {"type": "DT_FLOAT"}, "value": {"tensor": {"dtype": "DT_FLOAT", "tensorShape": {"dim": [{"size": "1024"}]}}}}}, {"name": "StatefulPartitionedCall/sequential_1/keras_layer/StatefulPartitionedCall/StatefulPartitionedCall/StatefulPartitionedCall/predict/resnet_v2_50/block3/unit_5/bottleneck_v2/preact/FusedBatchNormV3/Offset", "op": "Const", "input": ["^keras_layer_input"], "attr": {"dtype": {"type": "DT_FLOAT"}, "value": {"tensor": {"dtype": "DT_FLOAT", "tensorShape": {"dim": [{"size": "1024"}]}}}}}, {"name": "StatefulPartitionedCall/sequential_1/keras_layer/StatefulPartitionedCall/StatefulPartitionedCall/StatefulPartitionedCall/predict/resnet_v2_50/block3/unit_4/bottleneck_v2/preact/FusedBatchNormV3/Scaled", "op": "Const", "input": ["^keras_layer_input"], "attr": {"dtype": {"type": "DT_FLOAT"}, "value": {"tensor": {"dtype": "DT_FLOAT", "tensorShape": {"dim": [{"size": "1024"}]}}}}}, {"name": "StatefulPartitionedCall/sequential_1/keras_layer/StatefulPartitionedCall/StatefulPartitionedCall/StatefulPartitionedCall/predict/resnet_v2_50/block3/unit_4/bottleneck_v2/preact/FusedBatchNormV3/Offset", "op": "Const", "input": ["^keras_layer_input"], "attr": {"value": {"tensor": {"dtype": "DT_FLOAT", "tensorShape": {"dim": [{"size": "1024"}]}}}, "dtype": {"type": "DT_FLOAT"}}}, {"name": "StatefulPartitionedCall/sequential_1/keras_layer/StatefulPartitionedCall/StatefulPartitionedCall/StatefulPartitionedCall/predict/resnet_v2_50/block3/unit_3/bottleneck_v2/preact/FusedBatchNormV3/Scaled", "op": "Const", "input": ["^keras_layer_input"], "attr": {"value": {"tensor": {"dtype": "DT_FLOAT", "tensorShape": {"dim": [{"size": "1024"}]}}}, "dtype": {"type": "DT_FLOAT"}}}, {"name": "StatefulPartitionedCall/sequential_1/keras_layer/StatefulPartitionedCall/StatefulPartitionedCall/StatefulPartitionedCall/predict/resnet_v2_50/block3/unit_3/bottleneck_v2/preact/FusedBatchNormV3/Offset", "op": "Const", "input": ["^keras_layer_input"], "attr": {"value": {"tensor": {"dtype": "DT_FLOAT", "tensorShape": {"dim": [{"size": "1024"}]}}}, "dtype": {"type": "DT_FLOAT"}}}, {"name": "StatefulPartitionedCall/sequential_1/keras_layer/StatefulPartitionedCall/StatefulPartitionedCall/StatefulPartitionedCall/predict/resnet_v2_50/block3/unit_2/bottleneck_v2/preact/FusedBatchNormV3/Scaled", "op": "Const", "input": ["^keras_layer_input"], "attr": {"dtype": {"type": "DT_FLOAT"}, "value": {"tensor": {"dtype": "DT_FLOAT", "tensorShape": {"dim": [{"size": "1024"}]}}}}}, {"name": "StatefulPartitionedCall/sequential_1/keras_layer/StatefulPartitionedCall/StatefulPartitionedCall/StatefulPartitionedCall/predict/resnet_v2_50/block3/unit_2/bottleneck_v2/preact/FusedBatchNormV3/Offset", "op": "Const", "input": ["^keras_layer_input"], "attr": {"dtype": {"type": "DT_FLOAT"}, "value": {"tensor": {"dtype": "DT_FLOAT", "tensorShape": {"dim": [{"size": "1024"}]}}}}}, {"name": "StatefulPartitionedCall/sequential_1/keras_layer/StatefulPartitionedCall/StatefulPartitionedCall/StatefulPartitionedCall/predict/resnet_v2_50/block3/unit_1/bottleneck_v2/preact/FusedBatchNormV3/Scaled", "op": "Const", "input": ["^keras_layer_input"], "attr": {"dtype": {"type": "DT_FLOAT"}, "value": {"tensor": {"dtype": "DT_FLOAT", "tensorShape": {"dim": [{"size": "512"}]}}}}}, {"name": "StatefulPartitionedCall/sequential_1/keras_layer/StatefulPartitionedCall/StatefulPartitionedCall/StatefulPartitionedCall/predict/resnet_v2_50/block3/unit_1/bottleneck_v2/preact/FusedBatchNormV3/Offset", "op": "Const", "input": ["^keras_layer_input"], "attr": {"value": {"tensor": {"dtype": "DT_FLOAT", "tensorShape": {"dim": [{"size": "512"}]}}}, "dtype": {"type": "DT_FLOAT"}}}, {"name": "StatefulPartitionedCall/sequential_1/keras_layer/StatefulPartitionedCall/StatefulPartitionedCall/StatefulPartitionedCall/predict/resnet_v2_50/block2/unit_4/bottleneck_v2/preact/FusedBatchNormV3/Scaled", "op": "Const", "input": ["^keras_layer_input"], "attr": {"dtype": {"type": "DT_FLOAT"}, "value": {"tensor": {"dtype": "DT_FLOAT", "tensorShape": {"dim": [{"size": "512"}]}}}}}, {"name": "StatefulPartitionedCall/sequential_1/keras_layer/StatefulPartitionedCall/StatefulPartitionedCall/StatefulPartitionedCall/predict/resnet_v2_50/block2/unit_4/bottleneck_v2/preact/FusedBatchNormV3/Offset", "op": "Const", "input": ["^keras_layer_input"], "attr": {"value": {"tensor": {"dtype": "DT_FLOAT", "tensorShape": {"dim": [{"size": "512"}]}}}, "dtype": {"type": "DT_FLOAT"}}}, {"name": "StatefulPartitionedCall/sequential_1/keras_layer/StatefulPartitionedCall/StatefulPartitionedCall/StatefulPartitionedCall/predict/resnet_v2_50/block2/unit_3/bottleneck_v2/preact/FusedBatchNormV3/Scaled", "op": "Const", "input": ["^keras_layer_input"], "attr": {"dtype": {"type": "DT_FLOAT"}, "value": {"tensor": {"dtype": "DT_FLOAT", "tensorShape": {"dim": [{"size": "512"}]}}}}}, {"name": "StatefulPartitionedCall/sequential_1/keras_layer/StatefulPartitionedCall/StatefulPartitionedCall/StatefulPartitionedCall/predict/resnet_v2_50/block2/unit_3/bottleneck_v2/preact/FusedBatchNormV3/Offset", "op": "Const", "input": ["^keras_layer_input"], "attr": {"value": {"tensor": {"dtype": "DT_FLOAT", "tensorShape": {"dim": [{"size": "512"}]}}}, "dtype": {"type": "DT_FLOAT"}}}, {"name": "StatefulPartitionedCall/sequential_1/keras_layer/StatefulPartitionedCall/StatefulPartitionedCall/StatefulPartitionedCall/predict/resnet_v2_50/block2/unit_2/bottleneck_v2/preact/FusedBatchNormV3/Scaled", "op": "Const", "input": ["^keras_layer_input"], "attr": {"value": {"tensor": {"dtype": "DT_FLOAT", "tensorShape": {"dim": [{"size": "512"}]}}}, "dtype": {"type": "DT_FLOAT"}}}, {"name": "StatefulPartitionedCall/sequential_1/keras_layer/StatefulPartitionedCall/StatefulPartitionedCall/StatefulPartitionedCall/predict/resnet_v2_50/block2/unit_2/bottleneck_v2/preact/FusedBatchNormV3/Offset", "op": "Const", "input": ["^keras_layer_input"], "attr": {"value": {"tensor": {"dtype": "DT_FLOAT", "tensorShape": {"dim": [{"size": "512"}]}}}, "dtype": {"type": "DT_FLOAT"}}}, {"name": "StatefulPartitionedCall/sequential_1/keras_layer/StatefulPartitionedCall/StatefulPartitionedCall/StatefulPartitionedCall/predict/resnet_v2_50/block2/unit_1/bottleneck_v2/preact/FusedBatchNormV3/Scaled", "op": "Const", "input": ["^keras_layer_input"], "attr": {"dtype": {"type": "DT_FLOAT"}, "value": {"tensor": {"dtype": "DT_FLOAT", "tensorShape": {"dim": [{"size": "256"}]}}}}}, {"name": "StatefulPartitionedCall/sequential_1/keras_layer/StatefulPartitionedCall/StatefulPartitionedCall/StatefulPartitionedCall/predict/resnet_v2_50/block2/unit_1/bottleneck_v2/preact/FusedBatchNormV3/Offset", "op": "Const", "input": ["^keras_layer_input"], "attr": {"dtype": {"type": "DT_FLOAT"}, "value": {"tensor": {"dtype": "DT_FLOAT", "tensorShape": {"dim": [{"size": "256"}]}}}}}, {"name": "StatefulPartitionedCall/sequential_1/keras_layer/StatefulPartitionedCall/StatefulPartitionedCall/StatefulPartitionedCall/predict/resnet_v2_50/block1/unit_3/bottleneck_v2/preact/FusedBatchNormV3/Scaled", "op": "Const", "input": ["^keras_layer_input"], "attr": {"dtype": {"type": "DT_FLOAT"}, "value": {"tensor": {"dtype": "DT_FLOAT", "tensorShape": {"dim": [{"size": "256"}]}}}}}, {"name": "StatefulPartitionedCall/sequential_1/keras_layer/StatefulPartitionedCall/StatefulPartitionedCall/StatefulPartitionedCall/predict/resnet_v2_50/block1/unit_3/bottleneck_v2/preact/FusedBatchNormV3/Offset", "op": "Const", "input": ["^keras_layer_input"], "attr": {"value": {"tensor": {"dtype": "DT_FLOAT", "tensorShape": {"dim": [{"size": "256"}]}}}, "dtype": {"type": "DT_FLOAT"}}}, {"name": "StatefulPartitionedCall/sequential_1/keras_layer/StatefulPartitionedCall/StatefulPartitionedCall/StatefulPartitionedCall/predict/resnet_v2_50/block1/unit_2/bottleneck_v2/preact/FusedBatchNormV3/Scaled", "op": "Const", "input": ["^keras_layer_input"], "attr": {"value": {"tensor": {"dtype": "DT_FLOAT", "tensorShape": {"dim": [{"size": "256"}]}}}, "dtype": {"type": "DT_FLOAT"}}}, {"name": "StatefulPartitionedCall/sequential_1/keras_layer/StatefulPartitionedCall/StatefulPartitionedCall/StatefulPartitionedCall/predict/resnet_v2_50/block1/unit_2/bottleneck_v2/preact/FusedBatchNormV3/Offset", "op": "Const", "input": ["^keras_layer_input"], "attr": {"value": {"tensor": {"dtype": "DT_FLOAT", "tensorShape": {"dim": [{"size": "256"}]}}}, "dtype": {"type": "DT_FLOAT"}}}, {"name": "StatefulPartitionedCall/sequential_1/keras_layer/StatefulPartitionedCall/StatefulPartitionedCall/StatefulPartitionedCall/predict/resnet_v2_50/block1/unit_1/bottleneck_v2/preact/FusedBatchNormV3/Scaled", "op": "Const", "input": ["^keras_layer_input"], "attr": {"value": {"tensor": {"dtype": "DT_FLOAT", "tensorShape": {"dim": [{"size": "64"}]}}}, "dtype": {"type": "DT_FLOAT"}}}, {"name": "StatefulPartitionedCall/sequential_1/keras_layer/StatefulPartitionedCall/StatefulPartitionedCall/StatefulPartitionedCall/predict/resnet_v2_50/block1/unit_1/bottleneck_v2/preact/FusedBatchNormV3/Offset", "op": "Const", "input": ["^keras_layer_input"], "attr": {"value": {"tensor": {"dtype": "DT_FLOAT", "tensorShape": {"dim": [{"size": "64"}]}}}, "dtype": {"type": "DT_FLOAT"}}}, {"name": "StatefulPartitionedCall/sequential_1/keras_layer/StatefulPartitionedCall/StatefulPartitionedCall/StatefulPartitionedCall/predict/resnet_v2_50/postnorm/FusedBatchNormV3/Scaled", "op": "Const", "input": ["^keras_layer_input"], "attr": {"value": {"tensor": {"dtype": "DT_FLOAT", "tensorShape": {"dim": [{"size": "2048"}]}}}, "dtype": {"type": "DT_FLOAT"}}}, {"name": "StatefulPartitionedCall/sequential_1/keras_layer/StatefulPartitionedCall/StatefulPartitionedCall/StatefulPartitionedCall/predict/resnet_v2_50/postnorm/FusedBatchNormV3/Offset", "op": "Const", "input": ["^keras_layer_input"], "attr": {"value": {"tensor": {"dtype": "DT_FLOAT", "tensorShape": {"dim": [{"size": "2048"}]}}}, "dtype": {"type": "DT_FLOAT"}}}, {"name": "StatefulPartitionedCall/sequential_1/keras_layer/StatefulPartitionedCall/StatefulPartitionedCall/StatefulPartitionedCall/predict/resnet_v2_50/block4/unit_3/bottleneck_v2/preact/FusedBatchNormV3/Scaled", "op": "Const", "input": ["^keras_layer_input"], "attr": {"dtype": {"type": "DT_FLOAT"}, "value": {"tensor": {"dtype": "DT_FLOAT", "tensorShape": {"dim": [{"size": "2048"}]}}}}}, {"name": "StatefulPartitionedCall/sequential_1/keras_layer/StatefulPartitionedCall/StatefulPartitionedCall/StatefulPartitionedCall/predict/resnet_v2_50/block4/unit_3/bottleneck_v2/preact/FusedBatchNormV3/Offset", "op": "Const", "input": ["^keras_layer_input"], "attr": {"dtype": {"type": "DT_FLOAT"}, "value": {"tensor": {"dtype": "DT_FLOAT", "tensorShape": {"dim": [{"size": "2048"}]}}}}}, {"name": "StatefulPartitionedCall/sequential_1/keras_layer/StatefulPartitionedCall/StatefulPartitionedCall/StatefulPartitionedCall/predict/resnet_v2_50/block4/unit_2/bottleneck_v2/preact/FusedBatchNormV3/Scaled", "op": "Const", "input": ["^keras_layer_input"], "attr": {"dtype": {"type": "DT_FLOAT"}, "value": {"tensor": {"dtype": "DT_FLOAT", "tensorShape": {"dim": [{"size": "2048"}]}}}}}, {"name": "StatefulPartitionedCall/sequential_1/keras_layer/StatefulPartitionedCall/StatefulPartitionedCall/StatefulPartitionedCall/predict/resnet_v2_50/block4/unit_2/bottleneck_v2/preact/FusedBatchNormV3/Offset", "op": "Const", "input": ["^keras_layer_input"], "attr": {"value": {"tensor": {"dtype": "DT_FLOAT", "tensorShape": {"dim": [{"size": "2048"}]}}}, "dtype": {"type": "DT_FLOAT"}}}, {"name": "StatefulPartitionedCall/sequential_1/keras_layer/StatefulPartitionedCall/StatefulPartitionedCall/StatefulPartitionedCall/predict/resnet_v2_50/block4/unit_1/bottleneck_v2/preact/FusedBatchNormV3/Scaled", "op": "Const", "input": ["^keras_layer_input"], "attr": {"dtype": {"type": "DT_FLOAT"}, "value": {"tensor": {"dtype": "DT_FLOAT", "tensorShape": {"dim": [{"size": "1024"}]}}}}}, {"name": "StatefulPartitionedCall/sequential_1/keras_layer/StatefulPartitionedCall/StatefulPartitionedCall/StatefulPartitionedCall/predict/resnet_v2_50/block4/unit_1/bottleneck_v2/preact/FusedBatchNormV3/Offset", "op": "Const", "input": ["^keras_layer_input"], "attr": {"value": {"tensor": {"dtype": "DT_FLOAT", "tensorShape": {"dim": [{"size": "1024"}]}}}, "dtype": {"type": "DT_FLOAT"}}}, {"name": "StatefulPartitionedCall/sequential_1/keras_layer/StatefulPartitionedCall/StatefulPartitionedCall/StatefulPartitionedCall/predict/hub_input/Mul", "op": "Mul", "input": ["keras_layer_input", "StatefulPartitionedCall/sequential_1/keras_layer/StatefulPartitionedCall/StatefulPartitionedCall/StatefulPartitionedCall/predict/hub_input/Mul/y"], "attr": {"T": {"type": "DT_FLOAT"}}}, {"name": "StatefulPartitionedCall/sequential_1/keras_layer/StatefulPartitionedCall/StatefulPartitionedCall/StatefulPartitionedCall/predict/hub_input/Sub", "op": "Sub", "input": ["StatefulPartitionedCall/sequential_1/keras_layer/StatefulPartitionedCall/StatefulPartitionedCall/StatefulPartitionedCall/predict/hub_input/Mul", "StatefulPartitionedCall/sequential_1/keras_layer/StatefulPartitionedCall/StatefulPartitionedCall/StatefulPartitionedCall/predict/hub_input/Sub/y"], "attr": {"T": {"type": "DT_FLOAT"}}}, {"name": "StatefulPartitionedCall/sequential_1/keras_layer/StatefulPartitionedCall/StatefulPartitionedCall/StatefulPartitionedCall/predict/resnet_v2_50/Pad", "op": "Pad", "input": ["StatefulPartitionedCall/sequential_1/keras_layer/StatefulPartitionedCall/StatefulPartitionedCall/StatefulPartitionedCall/predict/hub_input/Sub", "StatefulPartitionedCall/sequential_1/keras_layer/StatefulPartitionedCall/StatefulPartitionedCall/StatefulPartitionedCall/predict/resnet_v2_50/Pad/paddings"], "attr": {"T": {"type": "DT_FLOAT"}, "Tpaddings": {"type": "DT_INT32"}}}, {"name": "StatefulPartitionedCall/sequential_1/keras_layer/StatefulPartitionedCall/StatefulPartitionedCall/StatefulPartitionedCall/predict/resnet_v2_50/conv1/BiasAdd", "op": "_FusedConv2D", "input": ["StatefulPartitionedCall/sequential_1/keras_layer/StatefulPartitionedCall/StatefulPartitionedCall/StatefulPartitionedCall/predict/resnet_v2_50/Pad", "Func/StatefulPartitionedCall/sequential_1/keras_layer/StatefulPartitionedCall/StatefulPartitionedCall/StatefulPartitionedCall/input/_829", "Func/StatefulPartitionedCall/sequential_1/keras_layer/StatefulPartitionedCall/StatefulPartitionedCall/StatefulPartitionedCall/input/_830"], "device": "/device:CPU:0", "attr": {"explicit_paddings": {"list": {}}, "num_args": {"i": "1"}, "leakyrelu_alpha": {"f": 0.2}, "strides": {"list": {"i": ["1", "2", "2", "1"]}}, "TArgs": {"list": {"type": ["DT_FLOAT"]}}, "num_host_args": {"i": "0"}, "epsilon": {"f": 0.0}, "fused_ops": {"list": {"s": ["Qmlhc0FkZA=="]}}, "filter_format": {"s": "SFdJTw=="}, "data_format": {"s": "TkhXQw=="}, "dilations": {"list": {"i": ["1", "1", "1", "1"]}}, "T": {"type": "DT_FLOAT"}, "use_cudnn_on_gpu": {"b": true}, "padding": {"s": "VkFMSUQ="}}}, {"name": "StatefulPartitionedCall/sequential_1/keras_layer/StatefulPartitionedCall/StatefulPartitionedCall/StatefulPartitionedCall/predict/resnet_v2_50/pool1/MaxPool", "op": "MaxPool", "input": ["StatefulPartitionedCall/sequential_1/keras_layer/StatefulPartitionedCall/StatefulPartitionedCall/StatefulPartitionedCall/predict/resnet_v2_50/conv1/BiasAdd"], "attr": {"strides": {"list": {"i": ["1", "2", "2", "1"]}}, "T": {"type": "DT_FLOAT"}, "explicit_paddings": {"list": {}}, "data_format": {"s": "TkhXQw=="}, "ksize": {"list": {"i": ["1", "3", "3", "1"]}}, "padding": {"s": "U0FNRQ=="}}}, {"name": "StatefulPartitionedCall/sequential_1/keras_layer/StatefulPartitionedCall/StatefulPartitionedCall/StatefulPartitionedCall/predict/resnet_v2_50/block1/unit_1/bottleneck_v2/preact/FusedBatchNormV3/Mul", "op": "Mul", "input": ["StatefulPartitionedCall/sequential_1/keras_layer/StatefulPartitionedCall/StatefulPartitionedCall/StatefulPartitionedCall/predict/resnet_v2_50/pool1/MaxPool", "StatefulPartitionedCall/sequential_1/keras_layer/StatefulPartitionedCall/StatefulPartitionedCall/StatefulPartitionedCall/predict/resnet_v2_50/block1/unit_1/bottleneck_v2/preact/FusedBatchNormV3/Scaled"], "attr": {"T": {"type": "DT_FLOAT"}}}, {"name": "StatefulPartitionedCall/sequential_1/keras_layer/StatefulPartitionedCall/StatefulPartitionedCall/StatefulPartitionedCall/predict/resnet_v2_50/block1/unit_1/bottleneck_v2/preact/FusedBatchNormV3", "op": "Add", "input": ["StatefulPartitionedCall/sequential_1/keras_layer/StatefulPartitionedCall/StatefulPartitionedCall/StatefulPartitionedCall/predict/resnet_v2_50/block1/unit_1/bottleneck_v2/preact/FusedBatchNormV3/Mul", "StatefulPartitionedCall/sequential_1/keras_layer/StatefulPartitionedCall/StatefulPartitionedCall/StatefulPartitionedCall/predict/resnet_v2_50/block1/unit_1/bottleneck_v2/preact/FusedBatchNormV3/Offset"], "attr": {"T": {"type": "DT_FLOAT"}}}, {"name": "StatefulPartitionedCall/sequential_1/keras_layer/StatefulPartitionedCall/StatefulPartitionedCall/StatefulPartitionedCall/predict/resnet_v2_50/block1/unit_1/bottleneck_v2/preact/Relu", "op": "Relu", "input": ["StatefulPartitionedCall/sequential_1/keras_layer/StatefulPartitionedCall/StatefulPartitionedCall/StatefulPartitionedCall/predict/resnet_v2_50/block1/unit_1/bottleneck_v2/preact/FusedBatchNormV3"], "attr": {"T": {"type": "DT_FLOAT"}}}, {"name": "StatefulPartitionedCall/sequential_1/keras_layer/StatefulPartitionedCall/StatefulPartitionedCall/StatefulPartitionedCall/predict/resnet_v2_50/block1/unit_1/bottleneck_v2/shortcut/BiasAdd", "op": "_FusedConv2D", "input": ["StatefulPartitionedCall/sequential_1/keras_layer/StatefulPartitionedCall/StatefulPartitionedCall/StatefulPartitionedCall/predict/resnet_v2_50/block1/unit_1/bottleneck_v2/preact/Relu", "Func/StatefulPartitionedCall/sequential_1/keras_layer/StatefulPartitionedCall/StatefulPartitionedCall/StatefulPartitionedCall/input/_835", "Func/StatefulPartitionedCall/sequential_1/keras_layer/StatefulPartitionedCall/StatefulPartitionedCall/StatefulPartitionedCall/input/_836"], "device": "/device:CPU:0", "attr": {"num_args": {"i": "1"}, "T": {"type": "DT_FLOAT"}, "use_cudnn_on_gpu": {"b": true}, "padding": {"s": "U0FNRQ=="}, "data_format": {"s": "TkhXQw=="}, "filter_format": {"s": "SFdJTw=="}, "epsilon": {"f": 0.0}, "TArgs": {"list": {"type": ["DT_FLOAT"]}}, "explicit_paddings": {"list": {}}, "fused_ops": {"list": {"s": ["Qmlhc0FkZA=="]}}, "dilations": {"list": {"i": ["1", "1", "1", "1"]}}, "leakyrelu_alpha": {"f": 0.2}, "strides": {"list": {"i": ["1", "1", "1", "1"]}}, "num_host_args": {"i": "0"}}}, {"name": "StatefulPartitionedCall/sequential_1/keras_layer/StatefulPartitionedCall/StatefulPartitionedCall/StatefulPartitionedCall/predict/resnet_v2_50/block1/unit_1/bottleneck_v2/conv1/Relu", "op": "_FusedConv2D", "input": ["StatefulPartitionedCall/sequential_1/keras_layer/StatefulPartitionedCall/StatefulPartitionedCall/StatefulPartitionedCall/predict/resnet_v2_50/block1/unit_1/bottleneck_v2/preact/Relu", "StatefulPartitionedCall/sequential_1/keras_layer/StatefulPartitionedCall/StatefulPartitionedCall/StatefulPartitionedCall/predict/resnet_v2_50/block1/unit_1/bottleneck_v2/conv1/Conv2D_weights", "StatefulPartitionedCall/sequential_1/keras_layer/StatefulPartitionedCall/StatefulPartitionedCall/StatefulPartitionedCall/predict/resnet_v2_50/block1/unit_1/bottleneck_v2/conv1/Conv2D_bn_offset"], "device": "/device:CPU:0", "attr": {"fused_ops": {"list": {"s": ["Qmlhc0FkZA==", "UmVsdQ=="]}}, "explicit_paddings": {"list": {}}, "T": {"type": "DT_FLOAT"}, "filter_format": {"s": "SFdJTw=="}, "epsilon": {"f": 0.0}, "data_format": {"s": "TkhXQw=="}, "num_args": {"i": "1"}, "use_cudnn_on_gpu": {"b": true}, "dilations": {"list": {"i": ["1", "1", "1", "1"]}}, "leakyrelu_alpha": {"f": 0.2}, "TArgs": {"list": {"type": ["DT_FLOAT"]}}, "padding": {"s": "U0FNRQ=="}, "strides": {"list": {"i": ["1", "1", "1", "1"]}}, "num_host_args": {"i": "0"}}}, {"name": "StatefulPartitionedCall/sequential_1/keras_layer/StatefulPartitionedCall/StatefulPartitionedCall/StatefulPartitionedCall/predict/resnet_v2_50/block1/unit_1/bottleneck_v2/conv2/Relu", "op": "_FusedConv2D", "input": ["StatefulPartitionedCall/sequential_1/keras_layer/StatefulPartitionedCall/StatefulPartitionedCall/StatefulPartitionedCall/predict/resnet_v2_50/block1/unit_1/bottleneck_v2/conv1/Relu", "StatefulPartitionedCall/sequential_1/keras_layer/StatefulPartitionedCall/StatefulPartitionedCall/StatefulPartitionedCall/predict/resnet_v2_50/block1/unit_1/bottleneck_v2/conv2/Conv2D_weights", "StatefulPartitionedCall/sequential_1/keras_layer/StatefulPartitionedCall/StatefulPartitionedCall/StatefulPartitionedCall/predict/resnet_v2_50/block1/unit_1/bottleneck_v2/conv2/Conv2D_bn_offset"], "device": "/device:CPU:0", "attr": {"num_host_args": {"i": "0"}, "dilations": {"list": {"i": ["1", "1", "1", "1"]}}, "TArgs": {"list": {"type": ["DT_FLOAT"]}}, "epsilon": {"f": 0.0}, "padding": {"s": "U0FNRQ=="}, "use_cudnn_on_gpu": {"b": true}, "strides": {"list": {"i": ["1", "1", "1", "1"]}}, "explicit_paddings": {"list": {}}, "data_format": {"s": "TkhXQw=="}, "fused_ops": {"list": {"s": ["Qmlhc0FkZA==", "UmVsdQ=="]}}, "T": {"type": "DT_FLOAT"}, "leakyrelu_alpha": {"f": 0.2}, "num_args": {"i": "1"}, "filter_format": {"s": "SFdJTw=="}}}, {"name": "StatefulPartitionedCall/sequential_1/keras_layer/StatefulPartitionedCall/StatefulPartitionedCall/StatefulPartitionedCall/predict/resnet_v2_50/block1/unit_1/bottleneck_v2/conv3/BiasAdd", "op": "_FusedConv2D", "input": ["StatefulPartitionedCall/sequential_1/keras_layer/StatefulPartitionedCall/StatefulPartitionedCall/StatefulPartitionedCall/predict/resnet_v2_50/block1/unit_1/bottleneck_v2/conv2/Relu", "Func/StatefulPartitionedCall/sequential_1/keras_layer/StatefulPartitionedCall/StatefulPartitionedCall/StatefulPartitionedCall/input/_847", "Func/StatefulPartitionedCall/sequential_1/keras_layer/StatefulPartitionedCall/StatefulPartitionedCall/StatefulPartitionedCall/input/_848"], "device": "/device:CPU:0", "attr": {"dilations": {"list": {"i": ["1", "1", "1", "1"]}}, "fused_ops": {"list": {"s": ["Qmlhc0FkZA=="]}}, "data_format": {"s": "TkhXQw=="}, "epsilon": {"f": 0.0}, "T": {"type": "DT_FLOAT"}, "padding": {"s": "U0FNRQ=="}, "filter_format": {"s": "SFdJTw=="}, "use_cudnn_on_gpu": {"b": true}, "num_host_args": {"i": "0"}, "num_args": {"i": "1"}, "explicit_paddings": {"list": {}}, "leakyrelu_alpha": {"f": 0.2}, "TArgs": {"list": {"type": ["DT_FLOAT"]}}, "strides": {"list": {"i": ["1", "1", "1", "1"]}}}}, {"name": "StatefulPartitionedCall/sequential_1/keras_layer/StatefulPartitionedCall/StatefulPartitionedCall/StatefulPartitionedCall/predict/resnet_v2_50/block1/unit_1/bottleneck_v2/add", "op": "AddV2", "input": ["StatefulPartitionedCall/sequential_1/keras_layer/StatefulPartitionedCall/StatefulPartitionedCall/StatefulPartitionedCall/predict/resnet_v2_50/block1/unit_1/bottleneck_v2/shortcut/BiasAdd", "StatefulPartitionedCall/sequential_1/keras_layer/StatefulPartitionedCall/StatefulPartitionedCall/StatefulPartitionedCall/predict/resnet_v2_50/block1/unit_1/bottleneck_v2/conv3/BiasAdd"], "attr": {"T": {"type": "DT_FLOAT"}}}, {"name": "StatefulPartitionedCall/sequential_1/keras_layer/StatefulPartitionedCall/StatefulPartitionedCall/StatefulPartitionedCall/predict/resnet_v2_50/block1/unit_2/bottleneck_v2/preact/FusedBatchNormV3/Mul", "op": "Mul", "input": ["StatefulPartitionedCall/sequential_1/keras_layer/StatefulPartitionedCall/StatefulPartitionedCall/StatefulPartitionedCall/predict/resnet_v2_50/block1/unit_1/bottleneck_v2/add", "StatefulPartitionedCall/sequential_1/keras_layer/StatefulPartitionedCall/StatefulPartitionedCall/StatefulPartitionedCall/predict/resnet_v2_50/block1/unit_2/bottleneck_v2/preact/FusedBatchNormV3/Scaled"], "attr": {"T": {"type": "DT_FLOAT"}}}, {"name": "StatefulPartitionedCall/sequential_1/keras_layer/StatefulPartitionedCall/StatefulPartitionedCall/StatefulPartitionedCall/predict/resnet_v2_50/block1/unit_2/bottleneck_v2/preact/FusedBatchNormV3", "op": "Add", "input": ["StatefulPartitionedCall/sequential_1/keras_layer/StatefulPartitionedCall/StatefulPartitionedCall/StatefulPartitionedCall/predict/resnet_v2_50/block1/unit_2/bottleneck_v2/preact/FusedBatchNormV3/Mul", "StatefulPartitionedCall/sequential_1/keras_layer/StatefulPartitionedCall/StatefulPartitionedCall/StatefulPartitionedCall/predict/resnet_v2_50/block1/unit_2/bottleneck_v2/preact/FusedBatchNormV3/Offset"], "attr": {"T": {"type": "DT_FLOAT"}}}, {"name": "StatefulPartitionedCall/sequential_1/keras_layer/StatefulPartitionedCall/StatefulPartitionedCall/StatefulPartitionedCall/predict/resnet_v2_50/block1/unit_2/bottleneck_v2/preact/Relu", "op": "Relu", "input": ["StatefulPartitionedCall/sequential_1/keras_layer/StatefulPartitionedCall/StatefulPartitionedCall/StatefulPartitionedCall/predict/resnet_v2_50/block1/unit_2/bottleneck_v2/preact/FusedBatchNormV3"], "attr": {"T": {"type": "DT_FLOAT"}}}, {"name": "StatefulPartitionedCall/sequential_1/keras_layer/StatefulPartitionedCall/StatefulPartitionedCall/StatefulPartitionedCall/predict/resnet_v2_50/block1/unit_2/bottleneck_v2/conv1/Relu", "op": "_FusedConv2D", "input": ["StatefulPartitionedCall/sequential_1/keras_layer/StatefulPartitionedCall/StatefulPartitionedCall/StatefulPartitionedCall/predict/resnet_v2_50/block1/unit_2/bottleneck_v2/preact/Relu", "StatefulPartitionedCall/sequential_1/keras_layer/StatefulPartitionedCall/StatefulPartitionedCall/StatefulPartitionedCall/predict/resnet_v2_50/block1/unit_2/bottleneck_v2/conv1/Conv2D_weights", "StatefulPartitionedCall/sequential_1/keras_layer/StatefulPartitionedCall/StatefulPartitionedCall/StatefulPartitionedCall/predict/resnet_v2_50/block1/unit_2/bottleneck_v2/conv1/Conv2D_bn_offset"], "device": "/device:CPU:0", "attr": {"num_host_args": {"i": "0"}, "epsilon": {"f": 0.0}, "data_format": {"s": "TkhXQw=="}, "TArgs": {"list": {"type": ["DT_FLOAT"]}}, "fused_ops": {"list": {"s": ["Qmlhc0FkZA==", "UmVsdQ=="]}}, "leakyrelu_alpha": {"f": 0.2}, "padding": {"s": "U0FNRQ=="}, "num_args": {"i": "1"}, "filter_format": {"s": "SFdJTw=="}, "dilations": {"list": {"i": ["1", "1", "1", "1"]}}, "strides": {"list": {"i": ["1", "1", "1", "1"]}}, "use_cudnn_on_gpu": {"b": true}, "T": {"type": "DT_FLOAT"}, "explicit_paddings": {"list": {}}}}, {"name": "StatefulPartitionedCall/sequential_1/keras_layer/StatefulPartitionedCall/StatefulPartitionedCall/StatefulPartitionedCall/predict/resnet_v2_50/block1/unit_2/bottleneck_v2/conv2/Relu", "op": "_FusedConv2D", "input": ["StatefulPartitionedCall/sequential_1/keras_layer/StatefulPartitionedCall/StatefulPartitionedCall/StatefulPartitionedCall/predict/resnet_v2_50/block1/unit_2/bottleneck_v2/conv1/Relu", "StatefulPartitionedCall/sequential_1/keras_layer/StatefulPartitionedCall/StatefulPartitionedCall/StatefulPartitionedCall/predict/resnet_v2_50/block1/unit_2/bottleneck_v2/conv2/Conv2D_weights", "StatefulPartitionedCall/sequential_1/keras_layer/StatefulPartitionedCall/StatefulPartitionedCall/StatefulPartitionedCall/predict/resnet_v2_50/block1/unit_2/bottleneck_v2/conv2/Conv2D_bn_offset"], "device": "/device:CPU:0", "attr": {"epsilon": {"f": 0.0}, "fused_ops": {"list": {"s": ["Qmlhc0FkZA==", "UmVsdQ=="]}}, "filter_format": {"s": "SFdJTw=="}, "num_args": {"i": "1"}, "padding": {"s": "U0FNRQ=="}, "leakyrelu_alpha": {"f": 0.2}, "TArgs": {"list": {"type": ["DT_FLOAT"]}}, "strides": {"list": {"i": ["1", "1", "1", "1"]}}, "dilations": {"list": {"i": ["1", "1", "1", "1"]}}, "use_cudnn_on_gpu": {"b": true}, "T": {"type": "DT_FLOAT"}, "explicit_paddings": {"list": {}}, "num_host_args": {"i": "0"}, "data_format": {"s": "TkhXQw=="}}}, {"name": "StatefulPartitionedCall/sequential_1/keras_layer/StatefulPartitionedCall/StatefulPartitionedCall/StatefulPartitionedCall/predict/resnet_v2_50/block1/unit_2/bottleneck_v2/conv3/BiasAdd", "op": "_FusedConv2D", "input": ["StatefulPartitionedCall/sequential_1/keras_layer/StatefulPartitionedCall/StatefulPartitionedCall/StatefulPartitionedCall/predict/resnet_v2_50/block1/unit_2/bottleneck_v2/conv2/Relu", "Func/StatefulPartitionedCall/sequential_1/keras_layer/StatefulPartitionedCall/StatefulPartitionedCall/StatefulPartitionedCall/input/_863", "Func/StatefulPartitionedCall/sequential_1/keras_layer/StatefulPartitionedCall/StatefulPartitionedCall/StatefulPartitionedCall/input/_864"], "device": "/device:CPU:0", "attr": {"dilations": {"list": {"i": ["1", "1", "1", "1"]}}, "explicit_paddings": {"list": {}}, "num_args": {"i": "1"}, "padding": {"s": "U0FNRQ=="}, "filter_format": {"s": "SFdJTw=="}, "fused_ops": {"list": {"s": ["Qmlhc0FkZA=="]}}, "data_format": {"s": "TkhXQw=="}, "leakyrelu_alpha": {"f": 0.2}, "T": {"type": "DT_FLOAT"}, "strides": {"list": {"i": ["1", "1", "1", "1"]}}, "epsilon": {"f": 0.0}, "num_host_args": {"i": "0"}, "TArgs": {"list": {"type": ["DT_FLOAT"]}}, "use_cudnn_on_gpu": {"b": true}}}, {"name": "StatefulPartitionedCall/sequential_1/keras_layer/StatefulPartitionedCall/StatefulPartitionedCall/StatefulPartitionedCall/predict/resnet_v2_50/block1/unit_2/bottleneck_v2/add", "op": "AddV2", "input": ["StatefulPartitionedCall/sequential_1/keras_layer/StatefulPartitionedCall/StatefulPartitionedCall/StatefulPartitionedCall/predict/resnet_v2_50/block1/unit_1/bottleneck_v2/add", "StatefulPartitionedCall/sequential_1/keras_layer/StatefulPartitionedCall/StatefulPartitionedCall/StatefulPartitionedCall/predict/resnet_v2_50/block1/unit_2/bottleneck_v2/conv3/BiasAdd"], "attr": {"T": {"type": "DT_FLOAT"}}}, {"name": "StatefulPartitionedCall/sequential_1/keras_layer/StatefulPartitionedCall/StatefulPartitionedCall/StatefulPartitionedCall/predict/resnet_v2_50/block1/unit_3/bottleneck_v2/shortcut/MaxPool", "op": "MaxPool", "input": ["StatefulPartitionedCall/sequential_1/keras_layer/StatefulPartitionedCall/StatefulPartitionedCall/StatefulPartitionedCall/predict/resnet_v2_50/block1/unit_2/bottleneck_v2/add"], "attr": {"data_format": {"s": "TkhXQw=="}, "padding": {"s": "U0FNRQ=="}, "strides": {"list": {"i": ["1", "2", "2", "1"]}}, "T": {"type": "DT_FLOAT"}, "ksize": {"list": {"i": ["1", "1", "1", "1"]}}, "explicit_paddings": {"list": {}}}}, {"name": "StatefulPartitionedCall/sequential_1/keras_layer/StatefulPartitionedCall/StatefulPartitionedCall/StatefulPartitionedCall/predict/resnet_v2_50/block1/unit_3/bottleneck_v2/preact/FusedBatchNormV3/Mul", "op": "Mul", "input": ["StatefulPartitionedCall/sequential_1/keras_layer/StatefulPartitionedCall/StatefulPartitionedCall/StatefulPartitionedCall/predict/resnet_v2_50/block1/unit_2/bottleneck_v2/add", "StatefulPartitionedCall/sequential_1/keras_layer/StatefulPartitionedCall/StatefulPartitionedCall/StatefulPartitionedCall/predict/resnet_v2_50/block1/unit_3/bottleneck_v2/preact/FusedBatchNormV3/Scaled"], "attr": {"T": {"type": "DT_FLOAT"}}}, {"name": "StatefulPartitionedCall/sequential_1/keras_layer/StatefulPartitionedCall/StatefulPartitionedCall/StatefulPartitionedCall/predict/resnet_v2_50/block1/unit_3/bottleneck_v2/preact/FusedBatchNormV3", "op": "Add", "input": ["StatefulPartitionedCall/sequential_1/keras_layer/StatefulPartitionedCall/StatefulPartitionedCall/StatefulPartitionedCall/predict/resnet_v2_50/block1/unit_3/bottleneck_v2/preact/FusedBatchNormV3/Mul", "StatefulPartitionedCall/sequential_1/keras_layer/StatefulPartitionedCall/StatefulPartitionedCall/StatefulPartitionedCall/predict/resnet_v2_50/block1/unit_3/bottleneck_v2/preact/FusedBatchNormV3/Offset"], "attr": {"T": {"type": "DT_FLOAT"}}}, {"name": "StatefulPartitionedCall/sequential_1/keras_layer/StatefulPartitionedCall/StatefulPartitionedCall/StatefulPartitionedCall/predict/resnet_v2_50/block1/unit_3/bottleneck_v2/preact/Relu", "op": "Relu", "input": ["StatefulPartitionedCall/sequential_1/keras_layer/StatefulPartitionedCall/StatefulPartitionedCall/StatefulPartitionedCall/predict/resnet_v2_50/block1/unit_3/bottleneck_v2/preact/FusedBatchNormV3"], "attr": {"T": {"type": "DT_FLOAT"}}}, {"name": "StatefulPartitionedCall/sequential_1/keras_layer/StatefulPartitionedCall/StatefulPartitionedCall/StatefulPartitionedCall/predict/resnet_v2_50/block1/unit_3/bottleneck_v2/conv1/Relu", "op": "_FusedConv2D", "input": ["StatefulPartitionedCall/sequential_1/keras_layer/StatefulPartitionedCall/StatefulPartitionedCall/StatefulPartitionedCall/predict/resnet_v2_50/block1/unit_3/bottleneck_v2/preact/Relu", "StatefulPartitionedCall/sequential_1/keras_layer/StatefulPartitionedCall/StatefulPartitionedCall/StatefulPartitionedCall/predict/resnet_v2_50/block1/unit_3/bottleneck_v2/conv1/Conv2D_weights", "StatefulPartitionedCall/sequential_1/keras_layer/StatefulPartitionedCall/StatefulPartitionedCall/StatefulPartitionedCall/predict/resnet_v2_50/block1/unit_3/bottleneck_v2/conv1/Conv2D_bn_offset"], "device": "/device:CPU:0", "attr": {"data_format": {"s": "TkhXQw=="}, "leakyrelu_alpha": {"f": 0.2}, "num_args": {"i": "1"}, "dilations": {"list": {"i": ["1", "1", "1", "1"]}}, "strides": {"list": {"i": ["1", "1", "1", "1"]}}, "use_cudnn_on_gpu": {"b": true}, "T": {"type": "DT_FLOAT"}, "epsilon": {"f": 0.0}, "fused_ops": {"list": {"s": ["Qmlhc0FkZA==", "UmVsdQ=="]}}, "num_host_args": {"i": "0"}, "TArgs": {"list": {"type": ["DT_FLOAT"]}}, "explicit_paddings": {"list": {}}, "padding": {"s": "U0FNRQ=="}, "filter_format": {"s": "SFdJTw=="}}}, {"name": "StatefulPartitionedCall/sequential_1/keras_layer/StatefulPartitionedCall/StatefulPartitionedCall/StatefulPartitionedCall/predict/resnet_v2_50/block1/unit_3/bottleneck_v2/Pad", "op": "Pad", "input": ["StatefulPartitionedCall/sequential_1/keras_layer/StatefulPartitionedCall/StatefulPartitionedCall/StatefulPartitionedCall/predict/resnet_v2_50/block1/unit_3/bottleneck_v2/conv1/Relu", "StatefulPartitionedCall/sequential_1/keras_layer/StatefulPartitionedCall/StatefulPartitionedCall/StatefulPartitionedCall/predict/resnet_v2_50/block1/unit_3/bottleneck_v2/Pad/paddings"], "attr": {"T": {"type": "DT_FLOAT"}, "Tpaddings": {"type": "DT_INT32"}}}, {"name": "StatefulPartitionedCall/sequential_1/keras_layer/StatefulPartitionedCall/StatefulPartitionedCall/StatefulPartitionedCall/predict/resnet_v2_50/block1/unit_3/bottleneck_v2/conv2/Relu", "op": "_FusedConv2D", "input": ["StatefulPartitionedCall/sequential_1/keras_layer/StatefulPartitionedCall/StatefulPartitionedCall/StatefulPartitionedCall/predict/resnet_v2_50/block1/unit_3/bottleneck_v2/Pad", "StatefulPartitionedCall/sequential_1/keras_layer/StatefulPartitionedCall/StatefulPartitionedCall/StatefulPartitionedCall/predict/resnet_v2_50/block1/unit_3/bottleneck_v2/conv2/Conv2D_weights", "StatefulPartitionedCall/sequential_1/keras_layer/StatefulPartitionedCall/StatefulPartitionedCall/StatefulPartitionedCall/predict/resnet_v2_50/block1/unit_3/bottleneck_v2/conv2/Conv2D_bn_offset"], "device": "/device:CPU:0", "attr": {"strides": {"list": {"i": ["1", "2", "2", "1"]}}, "leakyrelu_alpha": {"f": 0.2}, "data_format": {"s": "TkhXQw=="}, "explicit_paddings": {"list": {}}, "num_args": {"i": "1"}, "num_host_args": {"i": "0"}, "TArgs": {"list": {"type": ["DT_FLOAT"]}}, "T": {"type": "DT_FLOAT"}, "epsilon": {"f": 0.0}, "padding": {"s": "VkFMSUQ="}, "fused_ops": {"list": {"s": ["Qmlhc0FkZA==", "UmVsdQ=="]}}, "dilations": {"list": {"i": ["1", "1", "1", "1"]}}, "filter_format": {"s": "SFdJTw=="}, "use_cudnn_on_gpu": {"b": true}}}, {"name": "StatefulPartitionedCall/sequential_1/keras_layer/StatefulPartitionedCall/StatefulPartitionedCall/StatefulPartitionedCall/predict/resnet_v2_50/block1/unit_3/bottleneck_v2/conv3/BiasAdd", "op": "_FusedConv2D", "input": ["StatefulPartitionedCall/sequential_1/keras_layer/StatefulPartitionedCall/StatefulPartitionedCall/StatefulPartitionedCall/predict/resnet_v2_50/block1/unit_3/bottleneck_v2/conv2/Relu", "Func/StatefulPartitionedCall/sequential_1/keras_layer/StatefulPartitionedCall/StatefulPartitionedCall/StatefulPartitionedCall/input/_879", "Func/StatefulPartitionedCall/sequential_1/keras_layer/StatefulPartitionedCall/StatefulPartitionedCall/StatefulPartitionedCall/input/_880"], "device": "/device:CPU:0", "attr": {"padding": {"s": "U0FNRQ=="}, "epsilon": {"f": 0.0}, "filter_format": {"s": "SFdJTw=="}, "num_host_args": {"i": "0"}, "TArgs": {"list": {"type": ["DT_FLOAT"]}}, "strides": {"list": {"i": ["1", "1", "1", "1"]}}, "num_args": {"i": "1"}, "data_format": {"s": "TkhXQw=="}, "use_cudnn_on_gpu": {"b": true}, "T": {"type": "DT_FLOAT"}, "fused_ops": {"list": {"s": ["Qmlhc0FkZA=="]}}, "leakyrelu_alpha": {"f": 0.2}, "explicit_paddings": {"list": {}}, "dilations": {"list": {"i": ["1", "1", "1", "1"]}}}}, {"name": "StatefulPartitionedCall/sequential_1/keras_layer/StatefulPartitionedCall/StatefulPartitionedCall/StatefulPartitionedCall/predict/resnet_v2_50/block1/unit_3/bottleneck_v2/add", "op": "AddV2", "input": ["StatefulPartitionedCall/sequential_1/keras_layer/StatefulPartitionedCall/StatefulPartitionedCall/StatefulPartitionedCall/predict/resnet_v2_50/block1/unit_3/bottleneck_v2/shortcut/MaxPool", "StatefulPartitionedCall/sequential_1/keras_layer/StatefulPartitionedCall/StatefulPartitionedCall/StatefulPartitionedCall/predict/resnet_v2_50/block1/unit_3/bottleneck_v2/conv3/BiasAdd"], "attr": {"T": {"type": "DT_FLOAT"}}}, {"name": "StatefulPartitionedCall/sequential_1/keras_layer/StatefulPartitionedCall/StatefulPartitionedCall/StatefulPartitionedCall/predict/resnet_v2_50/block2/unit_1/bottleneck_v2/preact/FusedBatchNormV3/Mul", "op": "Mul", "input": ["StatefulPartitionedCall/sequential_1/keras_layer/StatefulPartitionedCall/StatefulPartitionedCall/StatefulPartitionedCall/predict/resnet_v2_50/block1/unit_3/bottleneck_v2/add", "StatefulPartitionedCall/sequential_1/keras_layer/StatefulPartitionedCall/StatefulPartitionedCall/StatefulPartitionedCall/predict/resnet_v2_50/block2/unit_1/bottleneck_v2/preact/FusedBatchNormV3/Scaled"], "attr": {"T": {"type": "DT_FLOAT"}}}, {"name": "StatefulPartitionedCall/sequential_1/keras_layer/StatefulPartitionedCall/StatefulPartitionedCall/StatefulPartitionedCall/predict/resnet_v2_50/block2/unit_1/bottleneck_v2/preact/FusedBatchNormV3", "op": "Add", "input": ["StatefulPartitionedCall/sequential_1/keras_layer/StatefulPartitionedCall/StatefulPartitionedCall/StatefulPartitionedCall/predict/resnet_v2_50/block2/unit_1/bottleneck_v2/preact/FusedBatchNormV3/Mul", "StatefulPartitionedCall/sequential_1/keras_layer/StatefulPartitionedCall/StatefulPartitionedCall/StatefulPartitionedCall/predict/resnet_v2_50/block2/unit_1/bottleneck_v2/preact/FusedBatchNormV3/Offset"], "attr": {"T": {"type": "DT_FLOAT"}}}, {"name": "StatefulPartitionedCall/sequential_1/keras_layer/StatefulPartitionedCall/StatefulPartitionedCall/StatefulPartitionedCall/predict/resnet_v2_50/block2/unit_1/bottleneck_v2/preact/Relu", "op": "Relu", "input": ["StatefulPartitionedCall/sequential_1/keras_layer/StatefulPartitionedCall/StatefulPartitionedCall/StatefulPartitionedCall/predict/resnet_v2_50/block2/unit_1/bottleneck_v2/preact/FusedBatchNormV3"], "attr": {"T": {"type": "DT_FLOAT"}}}, {"name": "StatefulPartitionedCall/sequential_1/keras_layer/StatefulPartitionedCall/StatefulPartitionedCall/StatefulPartitionedCall/predict/resnet_v2_50/block2/unit_1/bottleneck_v2/shortcut/BiasAdd", "op": "_FusedConv2D", "input": ["StatefulPartitionedCall/sequential_1/keras_layer/StatefulPartitionedCall/StatefulPartitionedCall/StatefulPartitionedCall/predict/resnet_v2_50/block2/unit_1/bottleneck_v2/preact/Relu", "Func/StatefulPartitionedCall/sequential_1/keras_layer/StatefulPartitionedCall/StatefulPartitionedCall/StatefulPartitionedCall/input/_885", "Func/StatefulPartitionedCall/sequential_1/keras_layer/StatefulPartitionedCall/StatefulPartitionedCall/StatefulPartitionedCall/input/_886"], "device": "/device:CPU:0", "attr": {"epsilon": {"f": 0.0}, "dilations": {"list": {"i": ["1", "1", "1", "1"]}}, "use_cudnn_on_gpu": {"b": true}, "leakyrelu_alpha": {"f": 0.2}, "num_host_args": {"i": "0"}, "fused_ops": {"list": {"s": ["Qmlhc0FkZA=="]}}, "num_args": {"i": "1"}, "T": {"type": "DT_FLOAT"}, "strides": {"list": {"i": ["1", "1", "1", "1"]}}, "data_format": {"s": "TkhXQw=="}, "explicit_paddings": {"list": {}}, "filter_format": {"s": "SFdJTw=="}, "TArgs": {"list": {"type": ["DT_FLOAT"]}}, "padding": {"s": "U0FNRQ=="}}}, {"name": "StatefulPartitionedCall/sequential_1/keras_layer/StatefulPartitionedCall/StatefulPartitionedCall/StatefulPartitionedCall/predict/resnet_v2_50/block2/unit_1/bottleneck_v2/conv1/Relu", "op": "_FusedConv2D", "input": ["StatefulPartitionedCall/sequential_1/keras_layer/StatefulPartitionedCall/StatefulPartitionedCall/StatefulPartitionedCall/predict/resnet_v2_50/block2/unit_1/bottleneck_v2/preact/Relu", "StatefulPartitionedCall/sequential_1/keras_layer/StatefulPartitionedCall/StatefulPartitionedCall/StatefulPartitionedCall/predict/resnet_v2_50/block2/unit_1/bottleneck_v2/conv1/Conv2D_weights", "StatefulPartitionedCall/sequential_1/keras_layer/StatefulPartitionedCall/StatefulPartitionedCall/StatefulPartitionedCall/predict/resnet_v2_50/block2/unit_1/bottleneck_v2/conv1/Conv2D_bn_offset"], "device": "/device:CPU:0", "attr": {"fused_ops": {"list": {"s": ["Qmlhc0FkZA==", "UmVsdQ=="]}}, "padding": {"s": "U0FNRQ=="}, "dilations": {"list": {"i": ["1", "1", "1", "1"]}}, "strides": {"list": {"i": ["1", "1", "1", "1"]}}, "filter_format": {"s": "SFdJTw=="}, "explicit_paddings": {"list": {}}, "T": {"type": "DT_FLOAT"}, "epsilon": {"f": 0.0}, "num_host_args": {"i": "0"}, "num_args": {"i": "1"}, "use_cudnn_on_gpu": {"b": true}, "data_format": {"s": "TkhXQw=="}, "TArgs": {"list": {"type": ["DT_FLOAT"]}}, "leakyrelu_alpha": {"f": 0.2}}}, {"name": "StatefulPartitionedCall/sequential_1/keras_layer/StatefulPartitionedCall/StatefulPartitionedCall/StatefulPartitionedCall/predict/resnet_v2_50/block2/unit_1/bottleneck_v2/conv2/Relu", "op": "_FusedConv2D", "input": ["StatefulPartitionedCall/sequential_1/keras_layer/StatefulPartitionedCall/StatefulPartitionedCall/StatefulPartitionedCall/predict/resnet_v2_50/block2/unit_1/bottleneck_v2/conv1/Relu", "StatefulPartitionedCall/sequential_1/keras_layer/StatefulPartitionedCall/StatefulPartitionedCall/StatefulPartitionedCall/predict/resnet_v2_50/block2/unit_1/bottleneck_v2/conv2/Conv2D_weights", "StatefulPartitionedCall/sequential_1/keras_layer/StatefulPartitionedCall/StatefulPartitionedCall/StatefulPartitionedCall/predict/resnet_v2_50/block2/unit_1/bottleneck_v2/conv2/Conv2D_bn_offset"], "device": "/device:CPU:0", "attr": {"data_format": {"s": "TkhXQw=="}, "strides": {"list": {"i": ["1", "1", "1", "1"]}}, "padding": {"s": "U0FNRQ=="}, "leakyrelu_alpha": {"f": 0.2}, "epsilon": {"f": 0.0}, "explicit_paddings": {"list": {}}, "num_host_args": {"i": "0"}, "use_cudnn_on_gpu": {"b": true}, "filter_format": {"s": "SFdJTw=="}, "fused_ops": {"list": {"s": ["Qmlhc0FkZA==", "UmVsdQ=="]}}, "dilations": {"list": {"i": ["1", "1", "1", "1"]}}, "TArgs": {"list": {"type": ["DT_FLOAT"]}}, "num_args": {"i": "1"}, "T": {"type": "DT_FLOAT"}}}, {"name": "StatefulPartitionedCall/sequential_1/keras_layer/StatefulPartitionedCall/StatefulPartitionedCall/StatefulPartitionedCall/predict/resnet_v2_50/block2/unit_1/bottleneck_v2/conv3/BiasAdd", "op": "_FusedConv2D", "input": ["StatefulPartitionedCall/sequential_1/keras_layer/StatefulPartitionedCall/StatefulPartitionedCall/StatefulPartitionedCall/predict/resnet_v2_50/block2/unit_1/bottleneck_v2/conv2/Relu", "Func/StatefulPartitionedCall/sequential_1/keras_layer/StatefulPartitionedCall/StatefulPartitionedCall/StatefulPartitionedCall/input/_897", "Func/StatefulPartitionedCall/sequential_1/keras_layer/StatefulPartitionedCall/StatefulPartitionedCall/StatefulPartitionedCall/input/_898"], "device": "/device:CPU:0", "attr": {"padding": {"s": "U0FNRQ=="}, "strides": {"list": {"i": ["1", "1", "1", "1"]}}, "dilations": {"list": {"i": ["1", "1", "1", "1"]}}, "leakyrelu_alpha": {"f": 0.2}, "T": {"type": "DT_FLOAT"}, "use_cudnn_on_gpu": {"b": true}, "num_host_args": {"i": "0"}, "fused_ops": {"list": {"s": ["Qmlhc0FkZA=="]}}, "filter_format": {"s": "SFdJTw=="}, "num_args": {"i": "1"}, "data_format": {"s": "TkhXQw=="}, "TArgs": {"list": {"type": ["DT_FLOAT"]}}, "explicit_paddings": {"list": {}}, "epsilon": {"f": 0.0}}}, {"name": "StatefulPartitionedCall/sequential_1/keras_layer/StatefulPartitionedCall/StatefulPartitionedCall/StatefulPartitionedCall/predict/resnet_v2_50/block2/unit_1/bottleneck_v2/add", "op": "AddV2", "input": ["StatefulPartitionedCall/sequential_1/keras_layer/StatefulPartitionedCall/StatefulPartitionedCall/StatefulPartitionedCall/predict/resnet_v2_50/block2/unit_1/bottleneck_v2/shortcut/BiasAdd", "StatefulPartitionedCall/sequential_1/keras_layer/StatefulPartitionedCall/StatefulPartitionedCall/StatefulPartitionedCall/predict/resnet_v2_50/block2/unit_1/bottleneck_v2/conv3/BiasAdd"], "attr": {"T": {"type": "DT_FLOAT"}}}, {"name": "StatefulPartitionedCall/sequential_1/keras_layer/StatefulPartitionedCall/StatefulPartitionedCall/StatefulPartitionedCall/predict/resnet_v2_50/block2/unit_2/bottleneck_v2/preact/FusedBatchNormV3/Mul", "op": "Mul", "input": ["StatefulPartitionedCall/sequential_1/keras_layer/StatefulPartitionedCall/StatefulPartitionedCall/StatefulPartitionedCall/predict/resnet_v2_50/block2/unit_1/bottleneck_v2/add", "StatefulPartitionedCall/sequential_1/keras_layer/StatefulPartitionedCall/StatefulPartitionedCall/StatefulPartitionedCall/predict/resnet_v2_50/block2/unit_2/bottleneck_v2/preact/FusedBatchNormV3/Scaled"], "attr": {"T": {"type": "DT_FLOAT"}}}, {"name": "StatefulPartitionedCall/sequential_1/keras_layer/StatefulPartitionedCall/StatefulPartitionedCall/StatefulPartitionedCall/predict/resnet_v2_50/block2/unit_2/bottleneck_v2/preact/FusedBatchNormV3", "op": "Add", "input": ["StatefulPartitionedCall/sequential_1/keras_layer/StatefulPartitionedCall/StatefulPartitionedCall/StatefulPartitionedCall/predict/resnet_v2_50/block2/unit_2/bottleneck_v2/preact/FusedBatchNormV3/Mul", "StatefulPartitionedCall/sequential_1/keras_layer/StatefulPartitionedCall/StatefulPartitionedCall/StatefulPartitionedCall/predict/resnet_v2_50/block2/unit_2/bottleneck_v2/preact/FusedBatchNormV3/Offset"], "attr": {"T": {"type": "DT_FLOAT"}}}, {"name": "StatefulPartitionedCall/sequential_1/keras_layer/StatefulPartitionedCall/StatefulPartitionedCall/StatefulPartitionedCall/predict/resnet_v2_50/block2/unit_2/bottleneck_v2/preact/Relu", "op": "Relu", "input": ["StatefulPartitionedCall/sequential_1/keras_layer/StatefulPartitionedCall/StatefulPartitionedCall/StatefulPartitionedCall/predict/resnet_v2_50/block2/unit_2/bottleneck_v2/preact/FusedBatchNormV3"], "attr": {"T": {"type": "DT_FLOAT"}}}, {"name": "StatefulPartitionedCall/sequential_1/keras_layer/StatefulPartitionedCall/StatefulPartitionedCall/StatefulPartitionedCall/predict/resnet_v2_50/block2/unit_2/bottleneck_v2/conv1/Relu", "op": "_FusedConv2D", "input": ["StatefulPartitionedCall/sequential_1/keras_layer/StatefulPartitionedCall/StatefulPartitionedCall/StatefulPartitionedCall/predict/resnet_v2_50/block2/unit_2/bottleneck_v2/preact/Relu", "StatefulPartitionedCall/sequential_1/keras_layer/StatefulPartitionedCall/StatefulPartitionedCall/StatefulPartitionedCall/predict/resnet_v2_50/block2/unit_2/bottleneck_v2/conv1/Conv2D_weights", "StatefulPartitionedCall/sequential_1/keras_layer/StatefulPartitionedCall/StatefulPartitionedCall/StatefulPartitionedCall/predict/resnet_v2_50/block2/unit_2/bottleneck_v2/conv1/Conv2D_bn_offset"], "device": "/device:CPU:0", "attr": {"epsilon": {"f": 0.0}, "TArgs": {"list": {"type": ["DT_FLOAT"]}}, "leakyrelu_alpha": {"f": 0.2}, "fused_ops": {"list": {"s": ["Qmlhc0FkZA==", "UmVsdQ=="]}}, "strides": {"list": {"i": ["1", "1", "1", "1"]}}, "filter_format": {"s": "SFdJTw=="}, "dilations": {"list": {"i": ["1", "1", "1", "1"]}}, "T": {"type": "DT_FLOAT"}, "explicit_paddings": {"list": {}}, "num_host_args": {"i": "0"}, "use_cudnn_on_gpu": {"b": true}, "num_args": {"i": "1"}, "data_format": {"s": "TkhXQw=="}, "padding": {"s": "U0FNRQ=="}}}, {"name": "StatefulPartitionedCall/sequential_1/keras_layer/StatefulPartitionedCall/StatefulPartitionedCall/StatefulPartitionedCall/predict/resnet_v2_50/block2/unit_2/bottleneck_v2/conv2/Relu", "op": "_FusedConv2D", "input": ["StatefulPartitionedCall/sequential_1/keras_layer/StatefulPartitionedCall/StatefulPartitionedCall/StatefulPartitionedCall/predict/resnet_v2_50/block2/unit_2/bottleneck_v2/conv1/Relu", "StatefulPartitionedCall/sequential_1/keras_layer/StatefulPartitionedCall/StatefulPartitionedCall/StatefulPartitionedCall/predict/resnet_v2_50/block2/unit_2/bottleneck_v2/conv2/Conv2D_weights", "StatefulPartitionedCall/sequential_1/keras_layer/StatefulPartitionedCall/StatefulPartitionedCall/StatefulPartitionedCall/predict/resnet_v2_50/block2/unit_2/bottleneck_v2/conv2/Conv2D_bn_offset"], "device": "/device:CPU:0", "attr": {"explicit_paddings": {"list": {}}, "dilations": {"list": {"i": ["1", "1", "1", "1"]}}, "leakyrelu_alpha": {"f": 0.2}, "fused_ops": {"list": {"s": ["Qmlhc0FkZA==", "UmVsdQ=="]}}, "num_host_args": {"i": "0"}, "strides": {"list": {"i": ["1", "1", "1", "1"]}}, "T": {"type": "DT_FLOAT"}, "epsilon": {"f": 0.0}, "use_cudnn_on_gpu": {"b": true}, "filter_format": {"s": "SFdJTw=="}, "num_args": {"i": "1"}, "data_format": {"s": "TkhXQw=="}, "padding": {"s": "U0FNRQ=="}, "TArgs": {"list": {"type": ["DT_FLOAT"]}}}}, {"name": "StatefulPartitionedCall/sequential_1/keras_layer/StatefulPartitionedCall/StatefulPartitionedCall/StatefulPartitionedCall/predict/resnet_v2_50/block2/unit_2/bottleneck_v2/conv3/BiasAdd", "op": "_FusedConv2D", "input": ["StatefulPartitionedCall/sequential_1/keras_layer/StatefulPartitionedCall/StatefulPartitionedCall/StatefulPartitionedCall/predict/resnet_v2_50/block2/unit_2/bottleneck_v2/conv2/Relu", "Func/StatefulPartitionedCall/sequential_1/keras_layer/StatefulPartitionedCall/StatefulPartitionedCall/StatefulPartitionedCall/input/_913", "Func/StatefulPartitionedCall/sequential_1/keras_layer/StatefulPartitionedCall/StatefulPartitionedCall/StatefulPartitionedCall/input/_914"], "device": "/device:CPU:0", "attr": {"dilations": {"list": {"i": ["1", "1", "1", "1"]}}, "filter_format": {"s": "SFdJTw=="}, "fused_ops": {"list": {"s": ["Qmlhc0FkZA=="]}}, "strides": {"list": {"i": ["1", "1", "1", "1"]}}, "T": {"type": "DT_FLOAT"}, "TArgs": {"list": {"type": ["DT_FLOAT"]}}, "leakyrelu_alpha": {"f": 0.2}, "padding": {"s": "U0FNRQ=="}, "epsilon": {"f": 0.0}, "data_format": {"s": "TkhXQw=="}, "explicit_paddings": {"list": {}}, "use_cudnn_on_gpu": {"b": true}, "num_host_args": {"i": "0"}, "num_args": {"i": "1"}}}, {"name": "StatefulPartitionedCall/sequential_1/keras_layer/StatefulPartitionedCall/StatefulPartitionedCall/StatefulPartitionedCall/predict/resnet_v2_50/block2/unit_2/bottleneck_v2/add", "op": "AddV2", "input": ["StatefulPartitionedCall/sequential_1/keras_layer/StatefulPartitionedCall/StatefulPartitionedCall/StatefulPartitionedCall/predict/resnet_v2_50/block2/unit_1/bottleneck_v2/add", "StatefulPartitionedCall/sequential_1/keras_layer/StatefulPartitionedCall/StatefulPartitionedCall/StatefulPartitionedCall/predict/resnet_v2_50/block2/unit_2/bottleneck_v2/conv3/BiasAdd"], "attr": {"T": {"type": "DT_FLOAT"}}}, {"name": "StatefulPartitionedCall/sequential_1/keras_layer/StatefulPartitionedCall/StatefulPartitionedCall/StatefulPartitionedCall/predict/resnet_v2_50/block2/unit_3/bottleneck_v2/preact/FusedBatchNormV3/Mul", "op": "Mul", "input": ["StatefulPartitionedCall/sequential_1/keras_layer/StatefulPartitionedCall/StatefulPartitionedCall/StatefulPartitionedCall/predict/resnet_v2_50/block2/unit_2/bottleneck_v2/add", "StatefulPartitionedCall/sequential_1/keras_layer/StatefulPartitionedCall/StatefulPartitionedCall/StatefulPartitionedCall/predict/resnet_v2_50/block2/unit_3/bottleneck_v2/preact/FusedBatchNormV3/Scaled"], "attr": {"T": {"type": "DT_FLOAT"}}}, {"name": "StatefulPartitionedCall/sequential_1/keras_layer/StatefulPartitionedCall/StatefulPartitionedCall/StatefulPartitionedCall/predict/resnet_v2_50/block2/unit_3/bottleneck_v2/preact/FusedBatchNormV3", "op": "Add", "input": ["StatefulPartitionedCall/sequential_1/keras_layer/StatefulPartitionedCall/StatefulPartitionedCall/StatefulPartitionedCall/predict/resnet_v2_50/block2/unit_3/bottleneck_v2/preact/FusedBatchNormV3/Mul", "StatefulPartitionedCall/sequential_1/keras_layer/StatefulPartitionedCall/StatefulPartitionedCall/StatefulPartitionedCall/predict/resnet_v2_50/block2/unit_3/bottleneck_v2/preact/FusedBatchNormV3/Offset"], "attr": {"T": {"type": "DT_FLOAT"}}}, {"name": "StatefulPartitionedCall/sequential_1/keras_layer/StatefulPartitionedCall/StatefulPartitionedCall/StatefulPartitionedCall/predict/resnet_v2_50/block2/unit_3/bottleneck_v2/preact/Relu", "op": "Relu", "input": ["StatefulPartitionedCall/sequential_1/keras_layer/StatefulPartitionedCall/StatefulPartitionedCall/StatefulPartitionedCall/predict/resnet_v2_50/block2/unit_3/bottleneck_v2/preact/FusedBatchNormV3"], "attr": {"T": {"type": "DT_FLOAT"}}}, {"name": "StatefulPartitionedCall/sequential_1/keras_layer/StatefulPartitionedCall/StatefulPartitionedCall/StatefulPartitionedCall/predict/resnet_v2_50/block2/unit_3/bottleneck_v2/conv1/Relu", "op": "_FusedConv2D", "input": ["StatefulPartitionedCall/sequential_1/keras_layer/StatefulPartitionedCall/StatefulPartitionedCall/StatefulPartitionedCall/predict/resnet_v2_50/block2/unit_3/bottleneck_v2/preact/Relu", "StatefulPartitionedCall/sequential_1/keras_layer/StatefulPartitionedCall/StatefulPartitionedCall/StatefulPartitionedCall/predict/resnet_v2_50/block2/unit_3/bottleneck_v2/conv1/Conv2D_weights", "StatefulPartitionedCall/sequential_1/keras_layer/StatefulPartitionedCall/StatefulPartitionedCall/StatefulPartitionedCall/predict/resnet_v2_50/block2/unit_3/bottleneck_v2/conv1/Conv2D_bn_offset"], "device": "/device:CPU:0", "attr": {"fused_ops": {"list": {"s": ["Qmlhc0FkZA==", "UmVsdQ=="]}}, "strides": {"list": {"i": ["1", "1", "1", "1"]}}, "explicit_paddings": {"list": {}}, "num_args": {"i": "1"}, "dilations": {"list": {"i": ["1", "1", "1", "1"]}}, "filter_format": {"s": "SFdJTw=="}, "epsilon": {"f": 0.0}, "num_host_args": {"i": "0"}, "padding": {"s": "U0FNRQ=="}, "T": {"type": "DT_FLOAT"}, "leakyrelu_alpha": {"f": 0.2}, "TArgs": {"list": {"type": ["DT_FLOAT"]}}, "data_format": {"s": "TkhXQw=="}, "use_cudnn_on_gpu": {"b": true}}}, {"name": "StatefulPartitionedCall/sequential_1/keras_layer/StatefulPartitionedCall/StatefulPartitionedCall/StatefulPartitionedCall/predict/resnet_v2_50/block2/unit_3/bottleneck_v2/conv2/Relu", "op": "_FusedConv2D", "input": ["StatefulPartitionedCall/sequential_1/keras_layer/StatefulPartitionedCall/StatefulPartitionedCall/StatefulPartitionedCall/predict/resnet_v2_50/block2/unit_3/bottleneck_v2/conv1/Relu", "StatefulPartitionedCall/sequential_1/keras_layer/StatefulPartitionedCall/StatefulPartitionedCall/StatefulPartitionedCall/predict/resnet_v2_50/block2/unit_3/bottleneck_v2/conv2/Conv2D_weights", "StatefulPartitionedCall/sequential_1/keras_layer/StatefulPartitionedCall/StatefulPartitionedCall/StatefulPartitionedCall/predict/resnet_v2_50/block2/unit_3/bottleneck_v2/conv2/Conv2D_bn_offset"], "device": "/device:CPU:0", "attr": {"num_host_args": {"i": "0"}, "epsilon": {"f": 0.0}, "strides": {"list": {"i": ["1", "1", "1", "1"]}}, "leakyrelu_alpha": {"f": 0.2}, "padding": {"s": "U0FNRQ=="}, "explicit_paddings": {"list": {}}, "T": {"type": "DT_FLOAT"}, "filter_format": {"s": "SFdJTw=="}, "data_format": {"s": "TkhXQw=="}, "dilations": {"list": {"i": ["1", "1", "1", "1"]}}, "use_cudnn_on_gpu": {"b": true}, "TArgs": {"list": {"type": ["DT_FLOAT"]}}, "num_args": {"i": "1"}, "fused_ops": {"list": {"s": ["Qmlhc0FkZA==", "UmVsdQ=="]}}}}, {"name": "StatefulPartitionedCall/sequential_1/keras_layer/StatefulPartitionedCall/StatefulPartitionedCall/StatefulPartitionedCall/predict/resnet_v2_50/block2/unit_3/bottleneck_v2/conv3/BiasAdd", "op": "_FusedConv2D", "input": ["StatefulPartitionedCall/sequential_1/keras_layer/StatefulPartitionedCall/StatefulPartitionedCall/StatefulPartitionedCall/predict/resnet_v2_50/block2/unit_3/bottleneck_v2/conv2/Relu", "Func/StatefulPartitionedCall/sequential_1/keras_layer/StatefulPartitionedCall/StatefulPartitionedCall/StatefulPartitionedCall/input/_929", "Func/StatefulPartitionedCall/sequential_1/keras_layer/StatefulPartitionedCall/StatefulPartitionedCall/StatefulPartitionedCall/input/_930"], "device": "/device:CPU:0", "attr": {"strides": {"list": {"i": ["1", "1", "1", "1"]}}, "TArgs": {"list": {"type": ["DT_FLOAT"]}}, "T": {"type": "DT_FLOAT"}, "num_args": {"i": "1"}, "num_host_args": {"i": "0"}, "explicit_paddings": {"list": {}}, "epsilon": {"f": 0.0}, "fused_ops": {"list": {"s": ["Qmlhc0FkZA=="]}}, "filter_format": {"s": "SFdJTw=="}, "dilations": {"list": {"i": ["1", "1", "1", "1"]}}, "use_cudnn_on_gpu": {"b": true}, "data_format": {"s": "TkhXQw=="}, "padding": {"s": "U0FNRQ=="}, "leakyrelu_alpha": {"f": 0.2}}}, {"name": "StatefulPartitionedCall/sequential_1/keras_layer/StatefulPartitionedCall/StatefulPartitionedCall/StatefulPartitionedCall/predict/resnet_v2_50/block2/unit_3/bottleneck_v2/add", "op": "AddV2", "input": ["StatefulPartitionedCall/sequential_1/keras_layer/StatefulPartitionedCall/StatefulPartitionedCall/StatefulPartitionedCall/predict/resnet_v2_50/block2/unit_2/bottleneck_v2/add", "StatefulPartitionedCall/sequential_1/keras_layer/StatefulPartitionedCall/StatefulPartitionedCall/StatefulPartitionedCall/predict/resnet_v2_50/block2/unit_3/bottleneck_v2/conv3/BiasAdd"], "attr": {"T": {"type": "DT_FLOAT"}}}, {"name": "StatefulPartitionedCall/sequential_1/keras_layer/StatefulPartitionedCall/StatefulPartitionedCall/StatefulPartitionedCall/predict/resnet_v2_50/block2/unit_4/bottleneck_v2/shortcut/MaxPool", "op": "MaxPool", "input": ["StatefulPartitionedCall/sequential_1/keras_layer/StatefulPartitionedCall/StatefulPartitionedCall/StatefulPartitionedCall/predict/resnet_v2_50/block2/unit_3/bottleneck_v2/add"], "attr": {"strides": {"list": {"i": ["1", "2", "2", "1"]}}, "explicit_paddings": {"list": {}}, "data_format": {"s": "TkhXQw=="}, "padding": {"s": "U0FNRQ=="}, "ksize": {"list": {"i": ["1", "1", "1", "1"]}}, "T": {"type": "DT_FLOAT"}}}, {"name": "StatefulPartitionedCall/sequential_1/keras_layer/StatefulPartitionedCall/StatefulPartitionedCall/StatefulPartitionedCall/predict/resnet_v2_50/block2/unit_4/bottleneck_v2/preact/FusedBatchNormV3/Mul", "op": "Mul", "input": ["StatefulPartitionedCall/sequential_1/keras_layer/StatefulPartitionedCall/StatefulPartitionedCall/StatefulPartitionedCall/predict/resnet_v2_50/block2/unit_3/bottleneck_v2/add", "StatefulPartitionedCall/sequential_1/keras_layer/StatefulPartitionedCall/StatefulPartitionedCall/StatefulPartitionedCall/predict/resnet_v2_50/block2/unit_4/bottleneck_v2/preact/FusedBatchNormV3/Scaled"], "attr": {"T": {"type": "DT_FLOAT"}}}, {"name": "StatefulPartitionedCall/sequential_1/keras_layer/StatefulPartitionedCall/StatefulPartitionedCall/StatefulPartitionedCall/predict/resnet_v2_50/block2/unit_4/bottleneck_v2/preact/FusedBatchNormV3", "op": "Add", "input": ["StatefulPartitionedCall/sequential_1/keras_layer/StatefulPartitionedCall/StatefulPartitionedCall/StatefulPartitionedCall/predict/resnet_v2_50/block2/unit_4/bottleneck_v2/preact/FusedBatchNormV3/Mul", "StatefulPartitionedCall/sequential_1/keras_layer/StatefulPartitionedCall/StatefulPartitionedCall/StatefulPartitionedCall/predict/resnet_v2_50/block2/unit_4/bottleneck_v2/preact/FusedBatchNormV3/Offset"], "attr": {"T": {"type": "DT_FLOAT"}}}, {"name": "StatefulPartitionedCall/sequential_1/keras_layer/StatefulPartitionedCall/StatefulPartitionedCall/StatefulPartitionedCall/predict/resnet_v2_50/block2/unit_4/bottleneck_v2/preact/Relu", "op": "Relu", "input": ["StatefulPartitionedCall/sequential_1/keras_layer/StatefulPartitionedCall/StatefulPartitionedCall/StatefulPartitionedCall/predict/resnet_v2_50/block2/unit_4/bottleneck_v2/preact/FusedBatchNormV3"], "attr": {"T": {"type": "DT_FLOAT"}}}, {"name": "StatefulPartitionedCall/sequential_1/keras_layer/StatefulPartitionedCall/StatefulPartitionedCall/StatefulPartitionedCall/predict/resnet_v2_50/block2/unit_4/bottleneck_v2/conv1/Relu", "op": "_FusedConv2D", "input": ["StatefulPartitionedCall/sequential_1/keras_layer/StatefulPartitionedCall/StatefulPartitionedCall/StatefulPartitionedCall/predict/resnet_v2_50/block2/unit_4/bottleneck_v2/preact/Relu", "StatefulPartitionedCall/sequential_1/keras_layer/StatefulPartitionedCall/StatefulPartitionedCall/StatefulPartitionedCall/predict/resnet_v2_50/block2/unit_4/bottleneck_v2/conv1/Conv2D_weights", "StatefulPartitionedCall/sequential_1/keras_layer/StatefulPartitionedCall/StatefulPartitionedCall/StatefulPartitionedCall/predict/resnet_v2_50/block2/unit_4/bottleneck_v2/conv1/Conv2D_bn_offset"], "device": "/device:CPU:0", "attr": {"explicit_paddings": {"list": {}}, "strides": {"list": {"i": ["1", "1", "1", "1"]}}, "data_format": {"s": "TkhXQw=="}, "num_args": {"i": "1"}, "use_cudnn_on_gpu": {"b": true}, "num_host_args": {"i": "0"}, "filter_format": {"s": "SFdJTw=="}, "fused_ops": {"list": {"s": ["Qmlhc0FkZA==", "UmVsdQ=="]}}, "epsilon": {"f": 0.0}, "TArgs": {"list": {"type": ["DT_FLOAT"]}}, "T": {"type": "DT_FLOAT"}, "padding": {"s": "U0FNRQ=="}, "leakyrelu_alpha": {"f": 0.2}, "dilations": {"list": {"i": ["1", "1", "1", "1"]}}}}, {"name": "StatefulPartitionedCall/sequential_1/keras_layer/StatefulPartitionedCall/StatefulPartitionedCall/StatefulPartitionedCall/predict/resnet_v2_50/block2/unit_4/bottleneck_v2/Pad", "op": "Pad", "input": ["StatefulPartitionedCall/sequential_1/keras_layer/StatefulPartitionedCall/StatefulPartitionedCall/StatefulPartitionedCall/predict/resnet_v2_50/block2/unit_4/bottleneck_v2/conv1/Relu", "StatefulPartitionedCall/sequential_1/keras_layer/StatefulPartitionedCall/StatefulPartitionedCall/StatefulPartitionedCall/predict/resnet_v2_50/block2/unit_4/bottleneck_v2/Pad/paddings"], "attr": {"T": {"type": "DT_FLOAT"}, "Tpaddings": {"type": "DT_INT32"}}}, {"name": "StatefulPartitionedCall/sequential_1/keras_layer/StatefulPartitionedCall/StatefulPartitionedCall/StatefulPartitionedCall/predict/resnet_v2_50/block2/unit_4/bottleneck_v2/conv2/Relu", "op": "_FusedConv2D", "input": ["StatefulPartitionedCall/sequential_1/keras_layer/StatefulPartitionedCall/StatefulPartitionedCall/StatefulPartitionedCall/predict/resnet_v2_50/block2/unit_4/bottleneck_v2/Pad", "StatefulPartitionedCall/sequential_1/keras_layer/StatefulPartitionedCall/StatefulPartitionedCall/StatefulPartitionedCall/predict/resnet_v2_50/block2/unit_4/bottleneck_v2/conv2/Conv2D_weights", "StatefulPartitionedCall/sequential_1/keras_layer/StatefulPartitionedCall/StatefulPartitionedCall/StatefulPartitionedCall/predict/resnet_v2_50/block2/unit_4/bottleneck_v2/conv2/Conv2D_bn_offset"], "device": "/device:CPU:0", "attr": {"dilations": {"list": {"i": ["1", "1", "1", "1"]}}, "filter_format": {"s": "SFdJTw=="}, "TArgs": {"list": {"type": ["DT_FLOAT"]}}, "num_args": {"i": "1"}, "epsilon": {"f": 0.0}, "strides": {"list": {"i": ["1", "2", "2", "1"]}}, "use_cudnn_on_gpu": {"b": true}, "data_format": {"s": "TkhXQw=="}, "fused_ops": {"list": {"s": ["Qmlhc0FkZA==", "UmVsdQ=="]}}, "T": {"type": "DT_FLOAT"}, "padding": {"s": "VkFMSUQ="}, "num_host_args": {"i": "0"}, "explicit_paddings": {"list": {}}, "leakyrelu_alpha": {"f": 0.2}}}, {"name": "StatefulPartitionedCall/sequential_1/keras_layer/StatefulPartitionedCall/StatefulPartitionedCall/StatefulPartitionedCall/predict/resnet_v2_50/block2/unit_4/bottleneck_v2/conv3/BiasAdd", "op": "_FusedConv2D", "input": ["StatefulPartitionedCall/sequential_1/keras_layer/StatefulPartitionedCall/StatefulPartitionedCall/StatefulPartitionedCall/predict/resnet_v2_50/block2/unit_4/bottleneck_v2/conv2/Relu", "Func/StatefulPartitionedCall/sequential_1/keras_layer/StatefulPartitionedCall/StatefulPartitionedCall/StatefulPartitionedCall/input/_945", "Func/StatefulPartitionedCall/sequential_1/keras_layer/StatefulPartitionedCall/StatefulPartitionedCall/StatefulPartitionedCall/input/_946"], "device": "/device:CPU:0", "attr": {"num_args": {"i": "1"}, "leakyrelu_alpha": {"f": 0.2}, "explicit_paddings": {"list": {}}, "epsilon": {"f": 0.0}, "use_cudnn_on_gpu": {"b": true}, "padding": {"s": "U0FNRQ=="}, "fused_ops": {"list": {"s": ["Qmlhc0FkZA=="]}}, "TArgs": {"list": {"type": ["DT_FLOAT"]}}, "data_format": {"s": "TkhXQw=="}, "T": {"type": "DT_FLOAT"}, "filter_format": {"s": "SFdJTw=="}, "num_host_args": {"i": "0"}, "strides": {"list": {"i": ["1", "1", "1", "1"]}}, "dilations": {"list": {"i": ["1", "1", "1", "1"]}}}}, {"name": "StatefulPartitionedCall/sequential_1/keras_layer/StatefulPartitionedCall/StatefulPartitionedCall/StatefulPartitionedCall/predict/resnet_v2_50/block2/unit_4/bottleneck_v2/add", "op": "AddV2", "input": ["StatefulPartitionedCall/sequential_1/keras_layer/StatefulPartitionedCall/StatefulPartitionedCall/StatefulPartitionedCall/predict/resnet_v2_50/block2/unit_4/bottleneck_v2/shortcut/MaxPool", "StatefulPartitionedCall/sequential_1/keras_layer/StatefulPartitionedCall/StatefulPartitionedCall/StatefulPartitionedCall/predict/resnet_v2_50/block2/unit_4/bottleneck_v2/conv3/BiasAdd"], "attr": {"T": {"type": "DT_FLOAT"}}}, {"name": "StatefulPartitionedCall/sequential_1/keras_layer/StatefulPartitionedCall/StatefulPartitionedCall/StatefulPartitionedCall/predict/resnet_v2_50/block3/unit_1/bottleneck_v2/preact/FusedBatchNormV3/Mul", "op": "Mul", "input": ["StatefulPartitionedCall/sequential_1/keras_layer/StatefulPartitionedCall/StatefulPartitionedCall/StatefulPartitionedCall/predict/resnet_v2_50/block2/unit_4/bottleneck_v2/add", "StatefulPartitionedCall/sequential_1/keras_layer/StatefulPartitionedCall/StatefulPartitionedCall/StatefulPartitionedCall/predict/resnet_v2_50/block3/unit_1/bottleneck_v2/preact/FusedBatchNormV3/Scaled"], "attr": {"T": {"type": "DT_FLOAT"}}}, {"name": "StatefulPartitionedCall/sequential_1/keras_layer/StatefulPartitionedCall/StatefulPartitionedCall/StatefulPartitionedCall/predict/resnet_v2_50/block3/unit_1/bottleneck_v2/preact/FusedBatchNormV3", "op": "Add", "input": ["StatefulPartitionedCall/sequential_1/keras_layer/StatefulPartitionedCall/StatefulPartitionedCall/StatefulPartitionedCall/predict/resnet_v2_50/block3/unit_1/bottleneck_v2/preact/FusedBatchNormV3/Mul", "StatefulPartitionedCall/sequential_1/keras_layer/StatefulPartitionedCall/StatefulPartitionedCall/StatefulPartitionedCall/predict/resnet_v2_50/block3/unit_1/bottleneck_v2/preact/FusedBatchNormV3/Offset"], "attr": {"T": {"type": "DT_FLOAT"}}}, {"name": "StatefulPartitionedCall/sequential_1/keras_layer/StatefulPartitionedCall/StatefulPartitionedCall/StatefulPartitionedCall/predict/resnet_v2_50/block3/unit_1/bottleneck_v2/preact/Relu", "op": "Relu", "input": ["StatefulPartitionedCall/sequential_1/keras_layer/StatefulPartitionedCall/StatefulPartitionedCall/StatefulPartitionedCall/predict/resnet_v2_50/block3/unit_1/bottleneck_v2/preact/FusedBatchNormV3"], "attr": {"T": {"type": "DT_FLOAT"}}}, {"name": "StatefulPartitionedCall/sequential_1/keras_layer/StatefulPartitionedCall/StatefulPartitionedCall/StatefulPartitionedCall/predict/resnet_v2_50/block3/unit_1/bottleneck_v2/shortcut/BiasAdd", "op": "_FusedConv2D", "input": ["StatefulPartitionedCall/sequential_1/keras_layer/StatefulPartitionedCall/StatefulPartitionedCall/StatefulPartitionedCall/predict/resnet_v2_50/block3/unit_1/bottleneck_v2/preact/Relu", "Func/StatefulPartitionedCall/sequential_1/keras_layer/StatefulPartitionedCall/StatefulPartitionedCall/StatefulPartitionedCall/input/_951", "Func/StatefulPartitionedCall/sequential_1/keras_layer/StatefulPartitionedCall/StatefulPartitionedCall/StatefulPartitionedCall/input/_952"], "device": "/device:CPU:0", "attr": {"TArgs": {"list": {"type": ["DT_FLOAT"]}}, "epsilon": {"f": 0.0}, "dilations": {"list": {"i": ["1", "1", "1", "1"]}}, "explicit_paddings": {"list": {}}, "T": {"type": "DT_FLOAT"}, "data_format": {"s": "TkhXQw=="}, "padding": {"s": "U0FNRQ=="}, "filter_format": {"s": "SFdJTw=="}, "leakyrelu_alpha": {"f": 0.2}, "fused_ops": {"list": {"s": ["Qmlhc0FkZA=="]}}, "strides": {"list": {"i": ["1", "1", "1", "1"]}}, "use_cudnn_on_gpu": {"b": true}, "num_args": {"i": "1"}, "num_host_args": {"i": "0"}}}, {"name": "StatefulPartitionedCall/sequential_1/keras_layer/StatefulPartitionedCall/StatefulPartitionedCall/StatefulPartitionedCall/predict/resnet_v2_50/block3/unit_1/bottleneck_v2/conv1/Relu", "op": "_FusedConv2D", "input": ["StatefulPartitionedCall/sequential_1/keras_layer/StatefulPartitionedCall/StatefulPartitionedCall/StatefulPartitionedCall/predict/resnet_v2_50/block3/unit_1/bottleneck_v2/preact/Relu", "StatefulPartitionedCall/sequential_1/keras_layer/StatefulPartitionedCall/StatefulPartitionedCall/StatefulPartitionedCall/predict/resnet_v2_50/block3/unit_1/bottleneck_v2/conv1/Conv2D_weights", "StatefulPartitionedCall/sequential_1/keras_layer/StatefulPartitionedCall/StatefulPartitionedCall/StatefulPartitionedCall/predict/resnet_v2_50/block3/unit_1/bottleneck_v2/conv1/Conv2D_bn_offset"], "device": "/device:CPU:0", "attr": {"data_format": {"s": "TkhXQw=="}, "strides": {"list": {"i": ["1", "1", "1", "1"]}}, "use_cudnn_on_gpu": {"b": true}, "num_args": {"i": "1"}, "num_host_args": {"i": "0"}, "fused_ops": {"list": {"s": ["Qmlhc0FkZA==", "UmVsdQ=="]}}, "leakyrelu_alpha": {"f": 0.2}, "TArgs": {"list": {"type": ["DT_FLOAT"]}}, "padding": {"s": "U0FNRQ=="}, "explicit_paddings": {"list": {}}, "T": {"type": "DT_FLOAT"}, "epsilon": {"f": 0.0}, "dilations": {"list": {"i": ["1", "1", "1", "1"]}}, "filter_format": {"s": "SFdJTw=="}}}, {"name": "StatefulPartitionedCall/sequential_1/keras_layer/StatefulPartitionedCall/StatefulPartitionedCall/StatefulPartitionedCall/predict/resnet_v2_50/block3/unit_1/bottleneck_v2/conv2/Relu", "op": "_FusedConv2D", "input": ["StatefulPartitionedCall/sequential_1/keras_layer/StatefulPartitionedCall/StatefulPartitionedCall/StatefulPartitionedCall/predict/resnet_v2_50/block3/unit_1/bottleneck_v2/conv1/Relu", "StatefulPartitionedCall/sequential_1/keras_layer/StatefulPartitionedCall/StatefulPartitionedCall/StatefulPartitionedCall/predict/resnet_v2_50/block3/unit_1/bottleneck_v2/conv2/Conv2D_weights", "StatefulPartitionedCall/sequential_1/keras_layer/StatefulPartitionedCall/StatefulPartitionedCall/StatefulPartitionedCall/predict/resnet_v2_50/block3/unit_1/bottleneck_v2/conv2/Conv2D_bn_offset"], "device": "/device:CPU:0", "attr": {"epsilon": {"f": 0.0}, "use_cudnn_on_gpu": {"b": true}, "explicit_paddings": {"list": {}}, "num_args": {"i": "1"}, "fused_ops": {"list": {"s": ["Qmlhc0FkZA==", "UmVsdQ=="]}}, "data_format": {"s": "TkhXQw=="}, "num_host_args": {"i": "0"}, "filter_format": {"s": "SFdJTw=="}, "TArgs": {"list": {"type": ["DT_FLOAT"]}}, "T": {"type": "DT_FLOAT"}, "dilations": {"list": {"i": ["1", "1", "1", "1"]}}, "leakyrelu_alpha": {"f": 0.2}, "padding": {"s": "U0FNRQ=="}, "strides": {"list": {"i": ["1", "1", "1", "1"]}}}}, {"name": "StatefulPartitionedCall/sequential_1/keras_layer/StatefulPartitionedCall/StatefulPartitionedCall/StatefulPartitionedCall/predict/resnet_v2_50/block3/unit_1/bottleneck_v2/conv3/BiasAdd", "op": "_FusedConv2D", "input": ["StatefulPartitionedCall/sequential_1/keras_layer/StatefulPartitionedCall/StatefulPartitionedCall/StatefulPartitionedCall/predict/resnet_v2_50/block3/unit_1/bottleneck_v2/conv2/Relu", "Func/StatefulPartitionedCall/sequential_1/keras_layer/StatefulPartitionedCall/StatefulPartitionedCall/StatefulPartitionedCall/input/_963", "Func/StatefulPartitionedCall/sequential_1/keras_layer/StatefulPartitionedCall/StatefulPartitionedCall/StatefulPartitionedCall/input/_964"], "device": "/device:CPU:0", "attr": {"use_cudnn_on_gpu": {"b": true}, "dilations": {"list": {"i": ["1", "1", "1", "1"]}}, "epsilon": {"f": 0.0}, "padding": {"s": "U0FNRQ=="}, "leakyrelu_alpha": {"f": 0.2}, "filter_format": {"s": "SFdJTw=="}, "strides": {"list": {"i": ["1", "1", "1", "1"]}}, "TArgs": {"list": {"type": ["DT_FLOAT"]}}, "data_format": {"s": "TkhXQw=="}, "T": {"type": "DT_FLOAT"}, "fused_ops": {"list": {"s": ["Qmlhc0FkZA=="]}}, "num_host_args": {"i": "0"}, "num_args": {"i": "1"}, "explicit_paddings": {"list": {}}}}, {"name": "StatefulPartitionedCall/sequential_1/keras_layer/StatefulPartitionedCall/StatefulPartitionedCall/StatefulPartitionedCall/predict/resnet_v2_50/block3/unit_1/bottleneck_v2/add", "op": "AddV2", "input": ["StatefulPartitionedCall/sequential_1/keras_layer/StatefulPartitionedCall/StatefulPartitionedCall/StatefulPartitionedCall/predict/resnet_v2_50/block3/unit_1/bottleneck_v2/shortcut/BiasAdd", "StatefulPartitionedCall/sequential_1/keras_layer/StatefulPartitionedCall/StatefulPartitionedCall/StatefulPartitionedCall/predict/resnet_v2_50/block3/unit_1/bottleneck_v2/conv3/BiasAdd"], "attr": {"T": {"type": "DT_FLOAT"}}}, {"name": "StatefulPartitionedCall/sequential_1/keras_layer/StatefulPartitionedCall/StatefulPartitionedCall/StatefulPartitionedCall/predict/resnet_v2_50/block3/unit_2/bottleneck_v2/preact/FusedBatchNormV3/Mul", "op": "Mul", "input": ["StatefulPartitionedCall/sequential_1/keras_layer/StatefulPartitionedCall/StatefulPartitionedCall/StatefulPartitionedCall/predict/resnet_v2_50/block3/unit_1/bottleneck_v2/add", "StatefulPartitionedCall/sequential_1/keras_layer/StatefulPartitionedCall/StatefulPartitionedCall/StatefulPartitionedCall/predict/resnet_v2_50/block3/unit_2/bottleneck_v2/preact/FusedBatchNormV3/Scaled"], "attr": {"T": {"type": "DT_FLOAT"}}}, {"name": "StatefulPartitionedCall/sequential_1/keras_layer/StatefulPartitionedCall/StatefulPartitionedCall/StatefulPartitionedCall/predict/resnet_v2_50/block3/unit_2/bottleneck_v2/preact/FusedBatchNormV3", "op": "Add", "input": ["StatefulPartitionedCall/sequential_1/keras_layer/StatefulPartitionedCall/StatefulPartitionedCall/StatefulPartitionedCall/predict/resnet_v2_50/block3/unit_2/bottleneck_v2/preact/FusedBatchNormV3/Mul", "StatefulPartitionedCall/sequential_1/keras_layer/StatefulPartitionedCall/StatefulPartitionedCall/StatefulPartitionedCall/predict/resnet_v2_50/block3/unit_2/bottleneck_v2/preact/FusedBatchNormV3/Offset"], "attr": {"T": {"type": "DT_FLOAT"}}}, {"name": "StatefulPartitionedCall/sequential_1/keras_layer/StatefulPartitionedCall/StatefulPartitionedCall/StatefulPartitionedCall/predict/resnet_v2_50/block3/unit_2/bottleneck_v2/preact/Relu", "op": "Relu", "input": ["StatefulPartitionedCall/sequential_1/keras_layer/StatefulPartitionedCall/StatefulPartitionedCall/StatefulPartitionedCall/predict/resnet_v2_50/block3/unit_2/bottleneck_v2/preact/FusedBatchNormV3"], "attr": {"T": {"type": "DT_FLOAT"}}}, {"name": "StatefulPartitionedCall/sequential_1/keras_layer/StatefulPartitionedCall/StatefulPartitionedCall/StatefulPartitionedCall/predict/resnet_v2_50/block3/unit_2/bottleneck_v2/conv1/Relu", "op": "_FusedConv2D", "input": ["StatefulPartitionedCall/sequential_1/keras_layer/StatefulPartitionedCall/StatefulPartitionedCall/StatefulPartitionedCall/predict/resnet_v2_50/block3/unit_2/bottleneck_v2/preact/Relu", "StatefulPartitionedCall/sequential_1/keras_layer/StatefulPartitionedCall/StatefulPartitionedCall/StatefulPartitionedCall/predict/resnet_v2_50/block3/unit_2/bottleneck_v2/conv1/Conv2D_weights", "StatefulPartitionedCall/sequential_1/keras_layer/StatefulPartitionedCall/StatefulPartitionedCall/StatefulPartitionedCall/predict/resnet_v2_50/block3/unit_2/bottleneck_v2/conv1/Conv2D_bn_offset"], "device": "/device:CPU:0", "attr": {"filter_format": {"s": "SFdJTw=="}, "data_format": {"s": "TkhXQw=="}, "TArgs": {"list": {"type": ["DT_FLOAT"]}}, "strides": {"list": {"i": ["1", "1", "1", "1"]}}, "leakyrelu_alpha": {"f": 0.2}, "dilations": {"list": {"i": ["1", "1", "1", "1"]}}, "num_args": {"i": "1"}, "num_host_args": {"i": "0"}, "explicit_paddings": {"list": {}}, "padding": {"s": "U0FNRQ=="}, "use_cudnn_on_gpu": {"b": true}, "fused_ops": {"list": {"s": ["Qmlhc0FkZA==", "UmVsdQ=="]}}, "T": {"type": "DT_FLOAT"}, "epsilon": {"f": 0.0}}}, {"name": "StatefulPartitionedCall/sequential_1/keras_layer/StatefulPartitionedCall/StatefulPartitionedCall/StatefulPartitionedCall/predict/resnet_v2_50/block3/unit_2/bottleneck_v2/conv2/Relu", "op": "_FusedConv2D", "input": ["StatefulPartitionedCall/sequential_1/keras_layer/StatefulPartitionedCall/StatefulPartitionedCall/StatefulPartitionedCall/predict/resnet_v2_50/block3/unit_2/bottleneck_v2/conv1/Relu", "StatefulPartitionedCall/sequential_1/keras_layer/StatefulPartitionedCall/StatefulPartitionedCall/StatefulPartitionedCall/predict/resnet_v2_50/block3/unit_2/bottleneck_v2/conv2/Conv2D_weights", "StatefulPartitionedCall/sequential_1/keras_layer/StatefulPartitionedCall/StatefulPartitionedCall/StatefulPartitionedCall/predict/resnet_v2_50/block3/unit_2/bottleneck_v2/conv2/Conv2D_bn_offset"], "device": "/device:CPU:0", "attr": {"strides": {"list": {"i": ["1", "1", "1", "1"]}}, "fused_ops": {"list": {"s": ["Qmlhc0FkZA==", "UmVsdQ=="]}}, "leakyrelu_alpha": {"f": 0.2}, "padding": {"s": "U0FNRQ=="}, "data_format": {"s": "TkhXQw=="}, "epsilon": {"f": 0.0}, "explicit_paddings": {"list": {}}, "filter_format": {"s": "SFdJTw=="}, "num_args": {"i": "1"}, "T": {"type": "DT_FLOAT"}, "TArgs": {"list": {"type": ["DT_FLOAT"]}}, "num_host_args": {"i": "0"}, "dilations": {"list": {"i": ["1", "1", "1", "1"]}}, "use_cudnn_on_gpu": {"b": true}}}, {"name": "StatefulPartitionedCall/sequential_1/keras_layer/StatefulPartitionedCall/StatefulPartitionedCall/StatefulPartitionedCall/predict/resnet_v2_50/block3/unit_2/bottleneck_v2/conv3/BiasAdd", "op": "_FusedConv2D", "input": ["StatefulPartitionedCall/sequential_1/keras_layer/StatefulPartitionedCall/StatefulPartitionedCall/StatefulPartitionedCall/predict/resnet_v2_50/block3/unit_2/bottleneck_v2/conv2/Relu", "Func/StatefulPartitionedCall/sequential_1/keras_layer/StatefulPartitionedCall/StatefulPartitionedCall/StatefulPartitionedCall/input/_979", "Func/StatefulPartitionedCall/sequential_1/keras_layer/StatefulPartitionedCall/StatefulPartitionedCall/StatefulPartitionedCall/input/_980"], "device": "/device:CPU:0", "attr": {"data_format": {"s": "TkhXQw=="}, "epsilon": {"f": 0.0}, "explicit_paddings": {"list": {}}, "filter_format": {"s": "SFdJTw=="}, "num_host_args": {"i": "0"}, "strides": {"list": {"i": ["1", "1", "1", "1"]}}, "dilations": {"list": {"i": ["1", "1", "1", "1"]}}, "leakyrelu_alpha": {"f": 0.2}, "padding": {"s": "U0FNRQ=="}, "use_cudnn_on_gpu": {"b": true}, "T": {"type": "DT_FLOAT"}, "fused_ops": {"list": {"s": ["Qmlhc0FkZA=="]}}, "TArgs": {"list": {"type": ["DT_FLOAT"]}}, "num_args": {"i": "1"}}}, {"name": "StatefulPartitionedCall/sequential_1/keras_layer/StatefulPartitionedCall/StatefulPartitionedCall/StatefulPartitionedCall/predict/resnet_v2_50/block3/unit_2/bottleneck_v2/add", "op": "AddV2", "input": ["StatefulPartitionedCall/sequential_1/keras_layer/StatefulPartitionedCall/StatefulPartitionedCall/StatefulPartitionedCall/predict/resnet_v2_50/block3/unit_1/bottleneck_v2/add", "StatefulPartitionedCall/sequential_1/keras_layer/StatefulPartitionedCall/StatefulPartitionedCall/StatefulPartitionedCall/predict/resnet_v2_50/block3/unit_2/bottleneck_v2/conv3/BiasAdd"], "attr": {"T": {"type": "DT_FLOAT"}}}, {"name": "StatefulPartitionedCall/sequential_1/keras_layer/StatefulPartitionedCall/StatefulPartitionedCall/StatefulPartitionedCall/predict/resnet_v2_50/block3/unit_3/bottleneck_v2/preact/FusedBatchNormV3/Mul", "op": "Mul", "input": ["StatefulPartitionedCall/sequential_1/keras_layer/StatefulPartitionedCall/StatefulPartitionedCall/StatefulPartitionedCall/predict/resnet_v2_50/block3/unit_2/bottleneck_v2/add", "StatefulPartitionedCall/sequential_1/keras_layer/StatefulPartitionedCall/StatefulPartitionedCall/StatefulPartitionedCall/predict/resnet_v2_50/block3/unit_3/bottleneck_v2/preact/FusedBatchNormV3/Scaled"], "attr": {"T": {"type": "DT_FLOAT"}}}, {"name": "StatefulPartitionedCall/sequential_1/keras_layer/StatefulPartitionedCall/StatefulPartitionedCall/StatefulPartitionedCall/predict/resnet_v2_50/block3/unit_3/bottleneck_v2/preact/FusedBatchNormV3", "op": "Add", "input": ["StatefulPartitionedCall/sequential_1/keras_layer/StatefulPartitionedCall/StatefulPartitionedCall/StatefulPartitionedCall/predict/resnet_v2_50/block3/unit_3/bottleneck_v2/preact/FusedBatchNormV3/Mul", "StatefulPartitionedCall/sequential_1/keras_layer/StatefulPartitionedCall/StatefulPartitionedCall/StatefulPartitionedCall/predict/resnet_v2_50/block3/unit_3/bottleneck_v2/preact/FusedBatchNormV3/Offset"], "attr": {"T": {"type": "DT_FLOAT"}}}, {"name": "StatefulPartitionedCall/sequential_1/keras_layer/StatefulPartitionedCall/StatefulPartitionedCall/StatefulPartitionedCall/predict/resnet_v2_50/block3/unit_3/bottleneck_v2/preact/Relu", "op": "Relu", "input": ["StatefulPartitionedCall/sequential_1/keras_layer/StatefulPartitionedCall/StatefulPartitionedCall/StatefulPartitionedCall/predict/resnet_v2_50/block3/unit_3/bottleneck_v2/preact/FusedBatchNormV3"], "attr": {"T": {"type": "DT_FLOAT"}}}, {"name": "StatefulPartitionedCall/sequential_1/keras_layer/StatefulPartitionedCall/StatefulPartitionedCall/StatefulPartitionedCall/predict/resnet_v2_50/block3/unit_3/bottleneck_v2/conv1/Relu", "op": "_FusedConv2D", "input": ["StatefulPartitionedCall/sequential_1/keras_layer/StatefulPartitionedCall/StatefulPartitionedCall/StatefulPartitionedCall/predict/resnet_v2_50/block3/unit_3/bottleneck_v2/preact/Relu", "StatefulPartitionedCall/sequential_1/keras_layer/StatefulPartitionedCall/StatefulPartitionedCall/StatefulPartitionedCall/predict/resnet_v2_50/block3/unit_3/bottleneck_v2/conv1/Conv2D_weights", "StatefulPartitionedCall/sequential_1/keras_layer/StatefulPartitionedCall/StatefulPartitionedCall/StatefulPartitionedCall/predict/resnet_v2_50/block3/unit_3/bottleneck_v2/conv1/Conv2D_bn_offset"], "device": "/device:CPU:0", "attr": {"filter_format": {"s": "SFdJTw=="}, "epsilon": {"f": 0.0}, "T": {"type": "DT_FLOAT"}, "leakyrelu_alpha": {"f": 0.2}, "use_cudnn_on_gpu": {"b": true}, "padding": {"s": "U0FNRQ=="}, "explicit_paddings": {"list": {}}, "num_host_args": {"i": "0"}, "strides": {"list": {"i": ["1", "1", "1", "1"]}}, "data_format": {"s": "TkhXQw=="}, "num_args": {"i": "1"}, "TArgs": {"list": {"type": ["DT_FLOAT"]}}, "dilations": {"list": {"i": ["1", "1", "1", "1"]}}, "fused_ops": {"list": {"s": ["Qmlhc0FkZA==", "UmVsdQ=="]}}}}, {"name": "StatefulPartitionedCall/sequential_1/keras_layer/StatefulPartitionedCall/StatefulPartitionedCall/StatefulPartitionedCall/predict/resnet_v2_50/block3/unit_3/bottleneck_v2/conv2/Relu", "op": "_FusedConv2D", "input": ["StatefulPartitionedCall/sequential_1/keras_layer/StatefulPartitionedCall/StatefulPartitionedCall/StatefulPartitionedCall/predict/resnet_v2_50/block3/unit_3/bottleneck_v2/conv1/Relu", "StatefulPartitionedCall/sequential_1/keras_layer/StatefulPartitionedCall/StatefulPartitionedCall/StatefulPartitionedCall/predict/resnet_v2_50/block3/unit_3/bottleneck_v2/conv2/Conv2D_weights", "StatefulPartitionedCall/sequential_1/keras_layer/StatefulPartitionedCall/StatefulPartitionedCall/StatefulPartitionedCall/predict/resnet_v2_50/block3/unit_3/bottleneck_v2/conv2/Conv2D_bn_offset"], "device": "/device:CPU:0", "attr": {"dilations": {"list": {"i": ["1", "1", "1", "1"]}}, "explicit_paddings": {"list": {}}, "leakyrelu_alpha": {"f": 0.2}, "num_args": {"i": "1"}, "strides": {"list": {"i": ["1", "1", "1", "1"]}}, "use_cudnn_on_gpu": {"b": true}, "fused_ops": {"list": {"s": ["Qmlhc0FkZA==", "UmVsdQ=="]}}, "TArgs": {"list": {"type": ["DT_FLOAT"]}}, "T": {"type": "DT_FLOAT"}, "num_host_args": {"i": "0"}, "filter_format": {"s": "SFdJTw=="}, "padding": {"s": "U0FNRQ=="}, "data_format": {"s": "TkhXQw=="}, "epsilon": {"f": 0.0}}}, {"name": "StatefulPartitionedCall/sequential_1/keras_layer/StatefulPartitionedCall/StatefulPartitionedCall/StatefulPartitionedCall/predict/resnet_v2_50/block3/unit_3/bottleneck_v2/conv3/BiasAdd", "op": "_FusedConv2D", "input": ["StatefulPartitionedCall/sequential_1/keras_layer/StatefulPartitionedCall/StatefulPartitionedCall/StatefulPartitionedCall/predict/resnet_v2_50/block3/unit_3/bottleneck_v2/conv2/Relu", "Func/StatefulPartitionedCall/sequential_1/keras_layer/StatefulPartitionedCall/StatefulPartitionedCall/StatefulPartitionedCall/input/_995", "Func/StatefulPartitionedCall/sequential_1/keras_layer/StatefulPartitionedCall/StatefulPartitionedCall/StatefulPartitionedCall/input/_996"], "device": "/device:CPU:0", "attr": {"use_cudnn_on_gpu": {"b": true}, "dilations": {"list": {"i": ["1", "1", "1", "1"]}}, "strides": {"list": {"i": ["1", "1", "1", "1"]}}, "leakyrelu_alpha": {"f": 0.2}, "fused_ops": {"list": {"s": ["Qmlhc0FkZA=="]}}, "filter_format": {"s": "SFdJTw=="}, "epsilon": {"f": 0.0}, "num_args": {"i": "1"}, "T": {"type": "DT_FLOAT"}, "explicit_paddings": {"list": {}}, "padding": {"s": "U0FNRQ=="}, "data_format": {"s": "TkhXQw=="}, "TArgs": {"list": {"type": ["DT_FLOAT"]}}, "num_host_args": {"i": "0"}}}, {"name": "StatefulPartitionedCall/sequential_1/keras_layer/StatefulPartitionedCall/StatefulPartitionedCall/StatefulPartitionedCall/predict/resnet_v2_50/block3/unit_3/bottleneck_v2/add", "op": "AddV2", "input": ["StatefulPartitionedCall/sequential_1/keras_layer/StatefulPartitionedCall/StatefulPartitionedCall/StatefulPartitionedCall/predict/resnet_v2_50/block3/unit_2/bottleneck_v2/add", "StatefulPartitionedCall/sequential_1/keras_layer/StatefulPartitionedCall/StatefulPartitionedCall/StatefulPartitionedCall/predict/resnet_v2_50/block3/unit_3/bottleneck_v2/conv3/BiasAdd"], "attr": {"T": {"type": "DT_FLOAT"}}}, {"name": "StatefulPartitionedCall/sequential_1/keras_layer/StatefulPartitionedCall/StatefulPartitionedCall/StatefulPartitionedCall/predict/resnet_v2_50/block3/unit_4/bottleneck_v2/preact/FusedBatchNormV3/Mul", "op": "Mul", "input": ["StatefulPartitionedCall/sequential_1/keras_layer/StatefulPartitionedCall/StatefulPartitionedCall/StatefulPartitionedCall/predict/resnet_v2_50/block3/unit_3/bottleneck_v2/add", "StatefulPartitionedCall/sequential_1/keras_layer/StatefulPartitionedCall/StatefulPartitionedCall/StatefulPartitionedCall/predict/resnet_v2_50/block3/unit_4/bottleneck_v2/preact/FusedBatchNormV3/Scaled"], "attr": {"T": {"type": "DT_FLOAT"}}}, {"name": "StatefulPartitionedCall/sequential_1/keras_layer/StatefulPartitionedCall/StatefulPartitionedCall/StatefulPartitionedCall/predict/resnet_v2_50/block3/unit_4/bottleneck_v2/preact/FusedBatchNormV3", "op": "Add", "input": ["StatefulPartitionedCall/sequential_1/keras_layer/StatefulPartitionedCall/StatefulPartitionedCall/StatefulPartitionedCall/predict/resnet_v2_50/block3/unit_4/bottleneck_v2/preact/FusedBatchNormV3/Mul", "StatefulPartitionedCall/sequential_1/keras_layer/StatefulPartitionedCall/StatefulPartitionedCall/StatefulPartitionedCall/predict/resnet_v2_50/block3/unit_4/bottleneck_v2/preact/FusedBatchNormV3/Offset"], "attr": {"T": {"type": "DT_FLOAT"}}}, {"name": "StatefulPartitionedCall/sequential_1/keras_layer/StatefulPartitionedCall/StatefulPartitionedCall/StatefulPartitionedCall/predict/resnet_v2_50/block3/unit_4/bottleneck_v2/preact/Relu", "op": "Relu", "input": ["StatefulPartitionedCall/sequential_1/keras_layer/StatefulPartitionedCall/StatefulPartitionedCall/StatefulPartitionedCall/predict/resnet_v2_50/block3/unit_4/bottleneck_v2/preact/FusedBatchNormV3"], "attr": {"T": {"type": "DT_FLOAT"}}}, {"name": "StatefulPartitionedCall/sequential_1/keras_layer/StatefulPartitionedCall/StatefulPartitionedCall/StatefulPartitionedCall/predict/resnet_v2_50/block3/unit_4/bottleneck_v2/conv1/Relu", "op": "_FusedConv2D", "input": ["StatefulPartitionedCall/sequential_1/keras_layer/StatefulPartitionedCall/StatefulPartitionedCall/StatefulPartitionedCall/predict/resnet_v2_50/block3/unit_4/bottleneck_v2/preact/Relu", "StatefulPartitionedCall/sequential_1/keras_layer/StatefulPartitionedCall/StatefulPartitionedCall/StatefulPartitionedCall/predict/resnet_v2_50/block3/unit_4/bottleneck_v2/conv1/Conv2D_weights", "StatefulPartitionedCall/sequential_1/keras_layer/StatefulPartitionedCall/StatefulPartitionedCall/StatefulPartitionedCall/predict/resnet_v2_50/block3/unit_4/bottleneck_v2/conv1/Conv2D_bn_offset"], "device": "/device:CPU:0", "attr": {"strides": {"list": {"i": ["1", "1", "1", "1"]}}, "explicit_paddings": {"list": {}}, "TArgs": {"list": {"type": ["DT_FLOAT"]}}, "leakyrelu_alpha": {"f": 0.2}, "filter_format": {"s": "SFdJTw=="}, "dilations": {"list": {"i": ["1", "1", "1", "1"]}}, "padding": {"s": "U0FNRQ=="}, "num_host_args": {"i": "0"}, "epsilon": {"f": 0.0}, "T": {"type": "DT_FLOAT"}, "fused_ops": {"list": {"s": ["Qmlhc0FkZA==", "UmVsdQ=="]}}, "data_format": {"s": "TkhXQw=="}, "use_cudnn_on_gpu": {"b": true}, "num_args": {"i": "1"}}}, {"name": "StatefulPartitionedCall/sequential_1/keras_layer/StatefulPartitionedCall/StatefulPartitionedCall/StatefulPartitionedCall/predict/resnet_v2_50/block3/unit_4/bottleneck_v2/conv2/Relu", "op": "_FusedConv2D", "input": ["StatefulPartitionedCall/sequential_1/keras_layer/StatefulPartitionedCall/StatefulPartitionedCall/StatefulPartitionedCall/predict/resnet_v2_50/block3/unit_4/bottleneck_v2/conv1/Relu", "StatefulPartitionedCall/sequential_1/keras_layer/StatefulPartitionedCall/StatefulPartitionedCall/StatefulPartitionedCall/predict/resnet_v2_50/block3/unit_4/bottleneck_v2/conv2/Conv2D_weights", "StatefulPartitionedCall/sequential_1/keras_layer/StatefulPartitionedCall/StatefulPartitionedCall/StatefulPartitionedCall/predict/resnet_v2_50/block3/unit_4/bottleneck_v2/conv2/Conv2D_bn_offset"], "device": "/device:CPU:0", "attr": {"padding": {"s": "U0FNRQ=="}, "fused_ops": {"list": {"s": ["Qmlhc0FkZA==", "UmVsdQ=="]}}, "data_format": {"s": "TkhXQw=="}, "epsilon": {"f": 0.0}, "strides": {"list": {"i": ["1", "1", "1", "1"]}}, "explicit_paddings": {"list": {}}, "leakyrelu_alpha": {"f": 0.2}, "use_cudnn_on_gpu": {"b": true}, "T": {"type": "DT_FLOAT"}, "TArgs": {"list": {"type": ["DT_FLOAT"]}}, "num_host_args": {"i": "0"}, "filter_format": {"s": "SFdJTw=="}, "dilations": {"list": {"i": ["1", "1", "1", "1"]}}, "num_args": {"i": "1"}}}, {"name": "StatefulPartitionedCall/sequential_1/keras_layer/StatefulPartitionedCall/StatefulPartitionedCall/StatefulPartitionedCall/predict/resnet_v2_50/block3/unit_4/bottleneck_v2/conv3/BiasAdd", "op": "_FusedConv2D", "input": ["StatefulPartitionedCall/sequential_1/keras_layer/StatefulPartitionedCall/StatefulPartitionedCall/StatefulPartitionedCall/predict/resnet_v2_50/block3/unit_4/bottleneck_v2/conv2/Relu", "Func/StatefulPartitionedCall/sequential_1/keras_layer/StatefulPartitionedCall/StatefulPartitionedCall/StatefulPartitionedCall/input/_1011", "Func/StatefulPartitionedCall/sequential_1/keras_layer/StatefulPartitionedCall/StatefulPartitionedCall/StatefulPartitionedCall/input/_1012"], "device": "/device:CPU:0", "attr": {"num_host_args": {"i": "0"}, "dilations": {"list": {"i": ["1", "1", "1", "1"]}}, "TArgs": {"list": {"type": ["DT_FLOAT"]}}, "use_cudnn_on_gpu": {"b": true}, "num_args": {"i": "1"}, "leakyrelu_alpha": {"f": 0.2}, "data_format": {"s": "TkhXQw=="}, "fused_ops": {"list": {"s": ["Qmlhc0FkZA=="]}}, "T": {"type": "DT_FLOAT"}, "strides": {"list": {"i": ["1", "1", "1", "1"]}}, "filter_format": {"s": "SFdJTw=="}, "epsilon": {"f": 0.0}, "explicit_paddings": {"list": {}}, "padding": {"s": "U0FNRQ=="}}}, {"name": "StatefulPartitionedCall/sequential_1/keras_layer/StatefulPartitionedCall/StatefulPartitionedCall/StatefulPartitionedCall/predict/resnet_v2_50/block3/unit_4/bottleneck_v2/add", "op": "AddV2", "input": ["StatefulPartitionedCall/sequential_1/keras_layer/StatefulPartitionedCall/StatefulPartitionedCall/StatefulPartitionedCall/predict/resnet_v2_50/block3/unit_3/bottleneck_v2/add", "StatefulPartitionedCall/sequential_1/keras_layer/StatefulPartitionedCall/StatefulPartitionedCall/StatefulPartitionedCall/predict/resnet_v2_50/block3/unit_4/bottleneck_v2/conv3/BiasAdd"], "attr": {"T": {"type": "DT_FLOAT"}}}, {"name": "StatefulPartitionedCall/sequential_1/keras_layer/StatefulPartitionedCall/StatefulPartitionedCall/StatefulPartitionedCall/predict/resnet_v2_50/block3/unit_5/bottleneck_v2/preact/FusedBatchNormV3/Mul", "op": "Mul", "input": ["StatefulPartitionedCall/sequential_1/keras_layer/StatefulPartitionedCall/StatefulPartitionedCall/StatefulPartitionedCall/predict/resnet_v2_50/block3/unit_4/bottleneck_v2/add", "StatefulPartitionedCall/sequential_1/keras_layer/StatefulPartitionedCall/StatefulPartitionedCall/StatefulPartitionedCall/predict/resnet_v2_50/block3/unit_5/bottleneck_v2/preact/FusedBatchNormV3/Scaled"], "attr": {"T": {"type": "DT_FLOAT"}}}, {"name": "StatefulPartitionedCall/sequential_1/keras_layer/StatefulPartitionedCall/StatefulPartitionedCall/StatefulPartitionedCall/predict/resnet_v2_50/block3/unit_5/bottleneck_v2/preact/FusedBatchNormV3", "op": "Add", "input": ["StatefulPartitionedCall/sequential_1/keras_layer/StatefulPartitionedCall/StatefulPartitionedCall/StatefulPartitionedCall/predict/resnet_v2_50/block3/unit_5/bottleneck_v2/preact/FusedBatchNormV3/Mul", "StatefulPartitionedCall/sequential_1/keras_layer/StatefulPartitionedCall/StatefulPartitionedCall/StatefulPartitionedCall/predict/resnet_v2_50/block3/unit_5/bottleneck_v2/preact/FusedBatchNormV3/Offset"], "attr": {"T": {"type": "DT_FLOAT"}}}, {"name": "StatefulPartitionedCall/sequential_1/keras_layer/StatefulPartitionedCall/StatefulPartitionedCall/StatefulPartitionedCall/predict/resnet_v2_50/block3/unit_5/bottleneck_v2/preact/Relu", "op": "Relu", "input": ["StatefulPartitionedCall/sequential_1/keras_layer/StatefulPartitionedCall/StatefulPartitionedCall/StatefulPartitionedCall/predict/resnet_v2_50/block3/unit_5/bottleneck_v2/preact/FusedBatchNormV3"], "attr": {"T": {"type": "DT_FLOAT"}}}, {"name": "StatefulPartitionedCall/sequential_1/keras_layer/StatefulPartitionedCall/StatefulPartitionedCall/StatefulPartitionedCall/predict/resnet_v2_50/block3/unit_5/bottleneck_v2/conv1/Relu", "op": "_FusedConv2D", "input": ["StatefulPartitionedCall/sequential_1/keras_layer/StatefulPartitionedCall/StatefulPartitionedCall/StatefulPartitionedCall/predict/resnet_v2_50/block3/unit_5/bottleneck_v2/preact/Relu", "StatefulPartitionedCall/sequential_1/keras_layer/StatefulPartitionedCall/StatefulPartitionedCall/StatefulPartitionedCall/predict/resnet_v2_50/block3/unit_5/bottleneck_v2/conv1/Conv2D_weights", "StatefulPartitionedCall/sequential_1/keras_layer/StatefulPartitionedCall/StatefulPartitionedCall/StatefulPartitionedCall/predict/resnet_v2_50/block3/unit_5/bottleneck_v2/conv1/Conv2D_bn_offset"], "device": "/device:CPU:0", "attr": {"strides": {"list": {"i": ["1", "1", "1", "1"]}}, "epsilon": {"f": 0.0}, "data_format": {"s": "TkhXQw=="}, "dilations": {"list": {"i": ["1", "1", "1", "1"]}}, "fused_ops": {"list": {"s": ["Qmlhc0FkZA==", "UmVsdQ=="]}}, "TArgs": {"list": {"type": ["DT_FLOAT"]}}, "explicit_paddings": {"list": {}}, "leakyrelu_alpha": {"f": 0.2}, "use_cudnn_on_gpu": {"b": true}, "T": {"type": "DT_FLOAT"}, "filter_format": {"s": "SFdJTw=="}, "num_args": {"i": "1"}, "padding": {"s": "U0FNRQ=="}, "num_host_args": {"i": "0"}}}, {"name": "StatefulPartitionedCall/sequential_1/keras_layer/StatefulPartitionedCall/StatefulPartitionedCall/StatefulPartitionedCall/predict/resnet_v2_50/block3/unit_5/bottleneck_v2/conv2/Relu", "op": "_FusedConv2D", "input": ["StatefulPartitionedCall/sequential_1/keras_layer/StatefulPartitionedCall/StatefulPartitionedCall/StatefulPartitionedCall/predict/resnet_v2_50/block3/unit_5/bottleneck_v2/conv1/Relu", "StatefulPartitionedCall/sequential_1/keras_layer/StatefulPartitionedCall/StatefulPartitionedCall/StatefulPartitionedCall/predict/resnet_v2_50/block3/unit_5/bottleneck_v2/conv2/Conv2D_weights", "StatefulPartitionedCall/sequential_1/keras_layer/StatefulPartitionedCall/StatefulPartitionedCall/StatefulPartitionedCall/predict/resnet_v2_50/block3/unit_5/bottleneck_v2/conv2/Conv2D_bn_offset"], "device": "/device:CPU:0", "attr": {"TArgs": {"list": {"type": ["DT_FLOAT"]}}, "num_args": {"i": "1"}, "num_host_args": {"i": "0"}, "epsilon": {"f": 0.0}, "leakyrelu_alpha": {"f": 0.2}, "explicit_paddings": {"list": {}}, "fused_ops": {"list": {"s": ["Qmlhc0FkZA==", "UmVsdQ=="]}}, "dilations": {"list": {"i": ["1", "1", "1", "1"]}}, "data_format": {"s": "TkhXQw=="}, "T": {"type": "DT_FLOAT"}, "padding": {"s": "U0FNRQ=="}, "filter_format": {"s": "SFdJTw=="}, "use_cudnn_on_gpu": {"b": true}, "strides": {"list": {"i": ["1", "1", "1", "1"]}}}}, {"name": "StatefulPartitionedCall/sequential_1/keras_layer/StatefulPartitionedCall/StatefulPartitionedCall/StatefulPartitionedCall/predict/resnet_v2_50/block3/unit_5/bottleneck_v2/conv3/BiasAdd", "op": "_FusedConv2D", "input": ["StatefulPartitionedCall/sequential_1/keras_layer/StatefulPartitionedCall/StatefulPartitionedCall/StatefulPartitionedCall/predict/resnet_v2_50/block3/unit_5/bottleneck_v2/conv2/Relu", "Func/StatefulPartitionedCall/sequential_1/keras_layer/StatefulPartitionedCall/StatefulPartitionedCall/StatefulPartitionedCall/input/_1027", "Func/StatefulPartitionedCall/sequential_1/keras_layer/StatefulPartitionedCall/StatefulPartitionedCall/StatefulPartitionedCall/input/_1028"], "device": "/device:CPU:0", "attr": {"num_args": {"i": "1"}, "TArgs": {"list": {"type": ["DT_FLOAT"]}}, "filter_format": {"s": "SFdJTw=="}, "explicit_paddings": {"list": {}}, "strides": {"list": {"i": ["1", "1", "1", "1"]}}, "fused_ops": {"list": {"s": ["Qmlhc0FkZA=="]}}, "epsilon": {"f": 0.0}, "padding": {"s": "U0FNRQ=="}, "dilations": {"list": {"i": ["1", "1", "1", "1"]}}, "num_host_args": {"i": "0"}, "T": {"type": "DT_FLOAT"}, "leakyrelu_alpha": {"f": 0.2}, "use_cudnn_on_gpu": {"b": true}, "data_format": {"s": "TkhXQw=="}}}, {"name": "StatefulPartitionedCall/sequential_1/keras_layer/StatefulPartitionedCall/StatefulPartitionedCall/StatefulPartitionedCall/predict/resnet_v2_50/block3/unit_5/bottleneck_v2/add", "op": "AddV2", "input": ["StatefulPartitionedCall/sequential_1/keras_layer/StatefulPartitionedCall/StatefulPartitionedCall/StatefulPartitionedCall/predict/resnet_v2_50/block3/unit_4/bottleneck_v2/add", "StatefulPartitionedCall/sequential_1/keras_layer/StatefulPartitionedCall/StatefulPartitionedCall/StatefulPartitionedCall/predict/resnet_v2_50/block3/unit_5/bottleneck_v2/conv3/BiasAdd"], "attr": {"T": {"type": "DT_FLOAT"}}}, {"name": "StatefulPartitionedCall/sequential_1/keras_layer/StatefulPartitionedCall/StatefulPartitionedCall/StatefulPartitionedCall/predict/resnet_v2_50/block3/unit_6/bottleneck_v2/preact/FusedBatchNormV3/Mul", "op": "Mul", "input": ["StatefulPartitionedCall/sequential_1/keras_layer/StatefulPartitionedCall/StatefulPartitionedCall/StatefulPartitionedCall/predict/resnet_v2_50/block3/unit_5/bottleneck_v2/add", "StatefulPartitionedCall/sequential_1/keras_layer/StatefulPartitionedCall/StatefulPartitionedCall/StatefulPartitionedCall/predict/resnet_v2_50/block3/unit_6/bottleneck_v2/preact/FusedBatchNormV3/Scaled"], "attr": {"T": {"type": "DT_FLOAT"}}}, {"name": "StatefulPartitionedCall/sequential_1/keras_layer/StatefulPartitionedCall/StatefulPartitionedCall/StatefulPartitionedCall/predict/resnet_v2_50/block3/unit_6/bottleneck_v2/shortcut/MaxPool", "op": "MaxPool", "input": ["StatefulPartitionedCall/sequential_1/keras_layer/StatefulPartitionedCall/StatefulPartitionedCall/StatefulPartitionedCall/predict/resnet_v2_50/block3/unit_5/bottleneck_v2/add"], "attr": {"T": {"type": "DT_FLOAT"}, "data_format": {"s": "TkhXQw=="}, "strides": {"list": {"i": ["1", "2", "2", "1"]}}, "padding": {"s": "U0FNRQ=="}, "ksize": {"list": {"i": ["1", "1", "1", "1"]}}, "explicit_paddings": {"list": {}}}}, {"name": "StatefulPartitionedCall/sequential_1/keras_layer/StatefulPartitionedCall/StatefulPartitionedCall/StatefulPartitionedCall/predict/resnet_v2_50/block3/unit_6/bottleneck_v2/preact/FusedBatchNormV3", "op": "Add", "input": ["StatefulPartitionedCall/sequential_1/keras_layer/StatefulPartitionedCall/StatefulPartitionedCall/StatefulPartitionedCall/predict/resnet_v2_50/block3/unit_6/bottleneck_v2/preact/FusedBatchNormV3/Mul", "StatefulPartitionedCall/sequential_1/keras_layer/StatefulPartitionedCall/StatefulPartitionedCall/StatefulPartitionedCall/predict/resnet_v2_50/block3/unit_6/bottleneck_v2/preact/FusedBatchNormV3/Offset"], "attr": {"T": {"type": "DT_FLOAT"}}}, {"name": "StatefulPartitionedCall/sequential_1/keras_layer/StatefulPartitionedCall/StatefulPartitionedCall/StatefulPartitionedCall/predict/resnet_v2_50/block3/unit_6/bottleneck_v2/preact/Relu", "op": "Relu", "input": ["StatefulPartitionedCall/sequential_1/keras_layer/StatefulPartitionedCall/StatefulPartitionedCall/StatefulPartitionedCall/predict/resnet_v2_50/block3/unit_6/bottleneck_v2/preact/FusedBatchNormV3"], "attr": {"T": {"type": "DT_FLOAT"}}}, {"name": "StatefulPartitionedCall/sequential_1/keras_layer/StatefulPartitionedCall/StatefulPartitionedCall/StatefulPartitionedCall/predict/resnet_v2_50/block3/unit_6/bottleneck_v2/conv1/Relu", "op": "_FusedConv2D", "input": ["StatefulPartitionedCall/sequential_1/keras_layer/StatefulPartitionedCall/StatefulPartitionedCall/StatefulPartitionedCall/predict/resnet_v2_50/block3/unit_6/bottleneck_v2/preact/Relu", "StatefulPartitionedCall/sequential_1/keras_layer/StatefulPartitionedCall/StatefulPartitionedCall/StatefulPartitionedCall/predict/resnet_v2_50/block3/unit_6/bottleneck_v2/conv1/Conv2D_weights", "StatefulPartitionedCall/sequential_1/keras_layer/StatefulPartitionedCall/StatefulPartitionedCall/StatefulPartitionedCall/predict/resnet_v2_50/block3/unit_6/bottleneck_v2/conv1/Conv2D_bn_offset"], "device": "/device:CPU:0", "attr": {"filter_format": {"s": "SFdJTw=="}, "padding": {"s": "U0FNRQ=="}, "strides": {"list": {"i": ["1", "1", "1", "1"]}}, "epsilon": {"f": 0.0}, "fused_ops": {"list": {"s": ["Qmlhc0FkZA==", "UmVsdQ=="]}}, "explicit_paddings": {"list": {}}, "T": {"type": "DT_FLOAT"}, "use_cudnn_on_gpu": {"b": true}, "TArgs": {"list": {"type": ["DT_FLOAT"]}}, "num_args": {"i": "1"}, "num_host_args": {"i": "0"}, "dilations": {"list": {"i": ["1", "1", "1", "1"]}}, "data_format": {"s": "TkhXQw=="}, "leakyrelu_alpha": {"f": 0.2}}}, {"name": "StatefulPartitionedCall/sequential_1/keras_layer/StatefulPartitionedCall/StatefulPartitionedCall/StatefulPartitionedCall/predict/resnet_v2_50/block3/unit_6/bottleneck_v2/Pad", "op": "Pad", "input": ["StatefulPartitionedCall/sequential_1/keras_layer/StatefulPartitionedCall/StatefulPartitionedCall/StatefulPartitionedCall/predict/resnet_v2_50/block3/unit_6/bottleneck_v2/conv1/Relu", "StatefulPartitionedCall/sequential_1/keras_layer/StatefulPartitionedCall/StatefulPartitionedCall/StatefulPartitionedCall/predict/resnet_v2_50/block3/unit_6/bottleneck_v2/Pad/paddings"], "attr": {"Tpaddings": {"type": "DT_INT32"}, "T": {"type": "DT_FLOAT"}}}, {"name": "StatefulPartitionedCall/sequential_1/keras_layer/StatefulPartitionedCall/StatefulPartitionedCall/StatefulPartitionedCall/predict/resnet_v2_50/block3/unit_6/bottleneck_v2/conv2/Relu", "op": "_FusedConv2D", "input": ["StatefulPartitionedCall/sequential_1/keras_layer/StatefulPartitionedCall/StatefulPartitionedCall/StatefulPartitionedCall/predict/resnet_v2_50/block3/unit_6/bottleneck_v2/Pad", "StatefulPartitionedCall/sequential_1/keras_layer/StatefulPartitionedCall/StatefulPartitionedCall/StatefulPartitionedCall/predict/resnet_v2_50/block3/unit_6/bottleneck_v2/conv2/Conv2D_weights", "StatefulPartitionedCall/sequential_1/keras_layer/StatefulPartitionedCall/StatefulPartitionedCall/StatefulPartitionedCall/predict/resnet_v2_50/block3/unit_6/bottleneck_v2/conv2/Conv2D_bn_offset"], "device": "/device:CPU:0", "attr": {"data_format": {"s": "TkhXQw=="}, "TArgs": {"list": {"type": ["DT_FLOAT"]}}, "leakyrelu_alpha": {"f": 0.2}, "T": {"type": "DT_FLOAT"}, "strides": {"list": {"i": ["1", "2", "2", "1"]}}, "padding": {"s": "VkFMSUQ="}, "use_cudnn_on_gpu": {"b": true}, "num_host_args": {"i": "0"}, "num_args": {"i": "1"}, "explicit_paddings": {"list": {}}, "filter_format": {"s": "SFdJTw=="}, "dilations": {"list": {"i": ["1", "1", "1", "1"]}}, "fused_ops": {"list": {"s": ["Qmlhc0FkZA==", "UmVsdQ=="]}}, "epsilon": {"f": 0.0}}}, {"name": "StatefulPartitionedCall/sequential_1/keras_layer/StatefulPartitionedCall/StatefulPartitionedCall/StatefulPartitionedCall/predict/resnet_v2_50/block3/unit_6/bottleneck_v2/conv3/BiasAdd", "op": "_FusedConv2D", "input": ["StatefulPartitionedCall/sequential_1/keras_layer/StatefulPartitionedCall/StatefulPartitionedCall/StatefulPartitionedCall/predict/resnet_v2_50/block3/unit_6/bottleneck_v2/conv2/Relu", "Func/StatefulPartitionedCall/sequential_1/keras_layer/StatefulPartitionedCall/StatefulPartitionedCall/StatefulPartitionedCall/input/_1043", "Func/StatefulPartitionedCall/sequential_1/keras_layer/StatefulPartitionedCall/StatefulPartitionedCall/StatefulPartitionedCall/input/_1044"], "device": "/device:CPU:0", "attr": {"filter_format": {"s": "SFdJTw=="}, "fused_ops": {"list": {"s": ["Qmlhc0FkZA=="]}}, "T": {"type": "DT_FLOAT"}, "data_format": {"s": "TkhXQw=="}, "epsilon": {"f": 0.0}, "explicit_paddings": {"list": {}}, "use_cudnn_on_gpu": {"b": true}, "padding": {"s": "U0FNRQ=="}, "num_args": {"i": "1"}, "leakyrelu_alpha": {"f": 0.2}, "TArgs": {"list": {"type": ["DT_FLOAT"]}}, "dilations": {"list": {"i": ["1", "1", "1", "1"]}}, "strides": {"list": {"i": ["1", "1", "1", "1"]}}, "num_host_args": {"i": "0"}}}, {"name": "StatefulPartitionedCall/sequential_1/keras_layer/StatefulPartitionedCall/StatefulPartitionedCall/StatefulPartitionedCall/predict/resnet_v2_50/block3/unit_6/bottleneck_v2/add", "op": "AddV2", "input": ["StatefulPartitionedCall/sequential_1/keras_layer/StatefulPartitionedCall/StatefulPartitionedCall/StatefulPartitionedCall/predict/resnet_v2_50/block3/unit_6/bottleneck_v2/shortcut/MaxPool", "StatefulPartitionedCall/sequential_1/keras_layer/StatefulPartitionedCall/StatefulPartitionedCall/StatefulPartitionedCall/predict/resnet_v2_50/block3/unit_6/bottleneck_v2/conv3/BiasAdd"], "attr": {"T": {"type": "DT_FLOAT"}}}, {"name": "StatefulPartitionedCall/sequential_1/keras_layer/StatefulPartitionedCall/StatefulPartitionedCall/StatefulPartitionedCall/predict/resnet_v2_50/block4/unit_1/bottleneck_v2/preact/FusedBatchNormV3/Mul", "op": "Mul", "input": ["StatefulPartitionedCall/sequential_1/keras_layer/StatefulPartitionedCall/StatefulPartitionedCall/StatefulPartitionedCall/predict/resnet_v2_50/block3/unit_6/bottleneck_v2/add", "StatefulPartitionedCall/sequential_1/keras_layer/StatefulPartitionedCall/StatefulPartitionedCall/StatefulPartitionedCall/predict/resnet_v2_50/block4/unit_1/bottleneck_v2/preact/FusedBatchNormV3/Scaled"], "attr": {"T": {"type": "DT_FLOAT"}}}, {"name": "StatefulPartitionedCall/sequential_1/keras_layer/StatefulPartitionedCall/StatefulPartitionedCall/StatefulPartitionedCall/predict/resnet_v2_50/block4/unit_1/bottleneck_v2/preact/FusedBatchNormV3", "op": "Add", "input": ["StatefulPartitionedCall/sequential_1/keras_layer/StatefulPartitionedCall/StatefulPartitionedCall/StatefulPartitionedCall/predict/resnet_v2_50/block4/unit_1/bottleneck_v2/preact/FusedBatchNormV3/Mul", "StatefulPartitionedCall/sequential_1/keras_layer/StatefulPartitionedCall/StatefulPartitionedCall/StatefulPartitionedCall/predict/resnet_v2_50/block4/unit_1/bottleneck_v2/preact/FusedBatchNormV3/Offset"], "attr": {"T": {"type": "DT_FLOAT"}}}, {"name": "StatefulPartitionedCall/sequential_1/ker…
_1/keras_layer/StatefulPartitionedCall/StatefulPartitionedCall/StatefulPartitionedCall/predict/resnet_v2_50/block4/unit_2/bottleneck_v2/conv1/Relu", "op": "_FusedConv2D", "input": ["StatefulPartitionedCall/sequential_1/keras_layer/StatefulPartitionedCall/StatefulPartitionedCall/StatefulPartitionedCall/predict/resnet_v2_50/block4/unit_2/bottleneck_v2/preact/Relu", "StatefulPartitionedCall/sequential_1/keras_layer/StatefulPartitionedCall/StatefulPartitionedCall/StatefulPartitionedCall/predict/resnet_v2_50/block4/unit_2/bottleneck_v2/conv1/Conv2D_weights", "StatefulPartitionedCall/sequential_1/keras_layer/StatefulPartitionedCall/StatefulPartitionedCall/StatefulPartitionedCall/predict/resnet_v2_50/block4/unit_2/bottleneck_v2/conv1/Conv2D_bn_offset"], "device": "/device:CPU:0", "attr": {"T": {"type": "DT_FLOAT"}, "padding": {"s": "U0FNRQ=="}, "dilations": {"list": {"i": ["1", "1", "1", "1"]}}, "filter_format": {"s": "SFdJTw=="}, "explicit_paddings": {"list": {}}, "data_format": {"s": "TkhXQw=="}, "epsilon": {"f": 0.0}, "strides": {"list": {"i": ["1", "1", "1", "1"]}}, "TArgs": {"list": {"type": ["DT_FLOAT"]}}, "use_cudnn_on_gpu": {"b": true}, "num_host_args": {"i": "0"}, "num_args": {"i": "1"}, "leakyrelu_alpha": {"f": 0.2}, "fused_ops": {"list": {"s": ["Qmlhc0FkZA==", "UmVsdQ=="]}}}}, {"name": "StatefulPartitionedCall/sequential_1/keras_layer/StatefulPartitionedCall/StatefulPartitionedCall/StatefulPartitionedCall/predict/resnet_v2_50/block4/unit_2/bottleneck_v2/conv2/Relu", "op": "_FusedConv2D", "input": ["StatefulPartitionedCall/sequential_1/keras_layer/StatefulPartitionedCall/StatefulPartitionedCall/StatefulPartitionedCall/predict/resnet_v2_50/block4/unit_2/bottleneck_v2/conv1/Relu", "StatefulPartitionedCall/sequential_1/keras_layer/StatefulPartitionedCall/StatefulPartitionedCall/StatefulPartitionedCall/predict/resnet_v2_50/block4/unit_2/bottleneck_v2/conv2/Conv2D_weights", "StatefulPartitionedCall/sequential_1/keras_layer/StatefulPartitionedCall/StatefulPartitionedCall/StatefulPartitionedCall/predict/resnet_v2_50/block4/unit_2/bottleneck_v2/conv2/Conv2D_bn_offset"], "device": "/device:CPU:0", "attr": {"num_host_args": {"i": "0"}, "explicit_paddings": {"list": {}}, "dilations": {"list": {"i": ["1", "1", "1", "1"]}}, "use_cudnn_on_gpu": {"b": true}, "filter_format": {"s": "SFdJTw=="}, "T": {"type": "DT_FLOAT"}, "num_args": {"i": "1"}, "leakyrelu_alpha": {"f": 0.2}, "fused_ops": {"list": {"s": ["Qmlhc0FkZA==", "UmVsdQ=="]}}, "TArgs": {"list": {"type": ["DT_FLOAT"]}}, "strides": {"list": {"i": ["1", "1", "1", "1"]}}, "padding": {"s": "U0FNRQ=="}, "data_format": {"s": "TkhXQw=="}, "epsilon": {"f": 0.0}}}, {"name": "StatefulPartitionedCall/sequential_1/keras_layer/StatefulPartitionedCall/StatefulPartitionedCall/StatefulPartitionedCall/predict/resnet_v2_50/block4/unit_2/bottleneck_v2/conv3/BiasAdd", "op": "_FusedConv2D", "input": ["StatefulPartitionedCall/sequential_1/keras_layer/StatefulPartitionedCall/StatefulPartitionedCall/StatefulPartitionedCall/predict/resnet_v2_50/block4/unit_2/bottleneck_v2/conv2/Relu", "Func/StatefulPartitionedCall/sequential_1/keras_layer/StatefulPartitionedCall/StatefulPartitionedCall/StatefulPartitionedCall/input/_1077", "Func/StatefulPartitionedCall/sequential_1/keras_layer/StatefulPartitionedCall/StatefulPartitionedCall/StatefulPartitionedCall/input/_1078"], "device": "/device:CPU:0", "attr": {"strides": {"list": {"i": ["1", "1", "1", "1"]}}, "dilations": {"list": {"i": ["1", "1", "1", "1"]}}, "T": {"type": "DT_FLOAT"}, "use_cudnn_on_gpu": {"b": true}, "leakyrelu_alpha": {"f": 0.2}, "explicit_paddings": {"list": {}}, "padding": {"s": "U0FNRQ=="}, "filter_format": {"s": "SFdJTw=="}, "fused_ops": {"list": {"s": ["Qmlhc0FkZA=="]}}, "num_host_args": {"i": "0"}, "TArgs": {"list": {"type": ["DT_FLOAT"]}}, "data_format": {"s": "TkhXQw=="}, "epsilon": {"f": 0.0}, "num_args": {"i": "1"}}}, {"name": "StatefulPartitionedCall/sequential_1/keras_layer/StatefulPartitionedCall/StatefulPartitionedCall/StatefulPartitionedCall/predict/resnet_v2_50/block4/unit_2/bottleneck_v2/add", "op": "AddV2", "input": ["StatefulPartitionedCall/sequential_1/keras_layer/StatefulPartitionedCall/StatefulPartitionedCall/StatefulPartitionedCall/predict/resnet_v2_50/block4/unit_1/bottleneck_v2/add", "StatefulPartitionedCall/sequential_1/keras_layer/StatefulPartitionedCall/StatefulPartitionedCall/StatefulPartitionedCall/predict/resnet_v2_50/block4/unit_2/bottleneck_v2/conv3/BiasAdd"], "attr": {"T": {"type": "DT_FLOAT"}}}, {"name": "StatefulPartitionedCall/sequential_1/keras_layer/StatefulPartitionedCall/StatefulPartitionedCall/StatefulPartitionedCall/predict/resnet_v2_50/block4/unit_3/bottleneck_v2/preact/FusedBatchNormV3/Mul", "op": "Mul", "input": ["StatefulPartitionedCall/sequential_1/keras_layer/StatefulPartitionedCall/StatefulPartitionedCall/StatefulPartitionedCall/predict/resnet_v2_50/block4/unit_2/bottleneck_v2/add", "StatefulPartitionedCall/sequential_1/keras_layer/StatefulPartitionedCall/StatefulPartitionedCall/StatefulPartitionedCall/predict/resnet_v2_50/block4/unit_3/bottleneck_v2/preact/FusedBatchNormV3/Scaled"], "attr": {"T": {"type": "DT_FLOAT"}}}, {"name": "StatefulPartitionedCall/sequential_1/keras_layer/StatefulPartitionedCall/StatefulPartitionedCall/StatefulPartitionedCall/predict/resnet_v2_50/block4/unit_3/bottleneck_v2/preact/FusedBatchNormV3", "op": "Add", "input": ["StatefulPartitionedCall/sequential_1/keras_layer/StatefulPartitionedCall/StatefulPartitionedCall/StatefulPartitionedCall/predict/resnet_v2_50/block4/unit_3/bottleneck_v2/preact/FusedBatchNormV3/Mul", "StatefulPartitionedCall/sequential_1/keras_layer/StatefulPartitionedCall/StatefulPartitionedCall/StatefulPartitionedCall/predict/resnet_v2_50/block4/unit_3/bottleneck_v2/preact/FusedBatchNormV3/Offset"], "attr": {"T": {"type": "DT_FLOAT"}}}, {"name": "StatefulPartitionedCall/sequential_1/keras_layer/StatefulPartitionedCall/StatefulPartitionedCall/StatefulPartitionedCall/predict/resnet_v2_50/block4/unit_3/bottleneck_v2/preact/Relu", "op": "Relu", "input": ["StatefulPartitionedCall/sequential_1/keras_layer/StatefulPartitionedCall/StatefulPartitionedCall/StatefulPartitionedCall/predict/resnet_v2_50/block4/unit_3/bottleneck_v2/preact/FusedBatchNormV3"], "attr": {"T": {"type": "DT_FLOAT"}}}, {"name": "StatefulPartitionedCall/sequential_1/keras_layer/StatefulPartitionedCall/StatefulPartitionedCall/StatefulPartitionedCall/predict/resnet_v2_50/block4/unit_3/bottleneck_v2/conv1/Relu", "op": "_FusedConv2D", "input": ["StatefulPartitionedCall/sequential_1/keras_layer/StatefulPartitionedCall/StatefulPartitionedCall/StatefulPartitionedCall/predict/resnet_v2_50/block4/unit_3/bottleneck_v2/preact/Relu", "StatefulPartitionedCall/sequential_1/keras_layer/StatefulPartitionedCall/StatefulPartitionedCall/StatefulPartitionedCall/predict/resnet_v2_50/block4/unit_3/bottleneck_v2/conv1/Conv2D_weights", "StatefulPartitionedCall/sequential_1/keras_layer/StatefulPartitionedCall/StatefulPartitionedCall/StatefulPartitionedCall/predict/resnet_v2_50/block4/unit_3/bottleneck_v2/conv1/Conv2D_bn_offset"], "device": "/device:CPU:0", "attr": {"fused_ops": {"list": {"s": ["Qmlhc0FkZA==", "UmVsdQ=="]}}, "num_args": {"i": "1"}, "epsilon": {"f": 0.0}, "dilations": {"list": {"i": ["1", "1", "1", "1"]}}, "strides": {"list": {"i": ["1", "1", "1", "1"]}}, "explicit_paddings": {"list": {}}, "TArgs": {"list": {"type": ["DT_FLOAT"]}}, "data_format": {"s": "TkhXQw=="}, "filter_format": {"s": "SFdJTw=="}, "use_cudnn_on_gpu": {"b": true}, "T": {"type": "DT_FLOAT"}, "padding": {"s": "U0FNRQ=="}, "leakyrelu_alpha": {"f": 0.2}, "num_host_args": {"i": "0"}}}, {"name": "StatefulPartitionedCall/sequential_1/keras_layer/StatefulPartitionedCall/StatefulPartitionedCall/StatefulPartitionedCall/predict/resnet_v2_50/block4/unit_3/bottleneck_v2/conv2/Relu", "op": "_FusedConv2D", "input": ["StatefulPartitionedCall/sequential_1/keras_layer/StatefulPartitionedCall/StatefulPartitionedCall/StatefulPartitionedCall/predict/resnet_v2_50/block4/unit_3/bottleneck_v2/conv1/Relu", "StatefulPartitionedCall/sequential_1/keras_layer/StatefulPartitionedCall/StatefulPartitionedCall/StatefulPartitionedCall/predict/resnet_v2_50/block4/unit_3/bottleneck_v2/conv2/Conv2D_weights", "StatefulPartitionedCall/sequential_1/keras_layer/StatefulPartitionedCall/StatefulPartitionedCall/StatefulPartitionedCall/predict/resnet_v2_50/block4/unit_3/bottleneck_v2/conv2/Conv2D_bn_offset"], "device": "/device:CPU:0", "attr": {"use_cudnn_on_gpu": {"b": true}, "T": {"type": "DT_FLOAT"}, "filter_format": {"s": "SFdJTw=="}, "padding": {"s": "U0FNRQ=="}, "data_format": {"s": "TkhXQw=="}, "strides": {"list": {"i": ["1", "1", "1", "1"]}}, "explicit_paddings": {"list": {}}, "epsilon": {"f": 0.0}, "dilations": {"list": {"i": ["1", "1", "1", "1"]}}, "num_host_args": {"i": "0"}, "TArgs": {"list": {"type": ["DT_FLOAT"]}}, "fused_ops": {"list": {"s": ["Qmlhc0FkZA==", "UmVsdQ=="]}}, "leakyrelu_alpha": {"f": 0.2}, "num_args": {"i": "1"}}}, {"name": "StatefulPartitionedCall/sequential_1/keras_layer/StatefulPartitionedCall/StatefulPartitionedCall/StatefulPartitionedCall/predict/resnet_v2_50/block4/unit_3/bottleneck_v2/conv3/BiasAdd", "op": "_FusedConv2D", "input": ["StatefulPartitionedCall/sequential_1/keras_layer/StatefulPartitionedCall/StatefulPartitionedCall/StatefulPartitionedCall/predict/resnet_v2_50/block4/unit_3/bottleneck_v2/conv2/Relu", "Func/StatefulPartitionedCall/sequential_1/keras_layer/StatefulPartitionedCall/StatefulPartitionedCall/StatefulPartitionedCall/input/_1093", "Func/StatefulPartitionedCall/sequential_1/keras_layer/StatefulPartitionedCall/StatefulPartitionedCall/StatefulPartitionedCall/input/_1094"], "device": "/device:CPU:0", "attr": {"dilations": {"list": {"i": ["1", "1", "1", "1"]}}, "leakyrelu_alpha": {"f": 0.2}, "padding": {"s": "U0FNRQ=="}, "epsilon": {"f": 0.0}, "TArgs": {"list": {"type": ["DT_FLOAT"]}}, "use_cudnn_on_gpu": {"b": true}, "num_host_args": {"i": "0"}, "data_format": {"s": "TkhXQw=="}, "explicit_paddings": {"list": {}}, "num_args": {"i": "1"}, "strides": {"list": {"i": ["1", "1", "1", "1"]}}, "T": {"type": "DT_FLOAT"}, "filter_format": {"s": "SFdJTw=="}, "fused_ops": {"list": {"s": ["Qmlhc0FkZA=="]}}}}, {"name": "StatefulPartitionedCall/sequential_1/keras_layer/StatefulPartitionedCall/StatefulPartitionedCall/StatefulPartitionedCall/predict/resnet_v2_50/block4/unit_3/bottleneck_v2/add", "op": "AddV2", "input": ["StatefulPartitionedCall/sequential_1/keras_layer/StatefulPartitionedCall/StatefulPartitionedCall/StatefulPartitionedCall/predict/resnet_v2_50/block4/unit_2/bottleneck_v2/add", "StatefulPartitionedCall/sequential_1/keras_layer/StatefulPartitionedCall/StatefulPartitionedCall/StatefulPartitionedCall/predict/resnet_v2_50/block4/unit_3/bottleneck_v2/conv3/BiasAdd"], "attr": {"T": {"type": "DT_FLOAT"}}}, {"name": "StatefulPartitionedCall/sequential_1/keras_layer/StatefulPartitionedCall/StatefulPartitionedCall/StatefulPartitionedCall/predict/resnet_v2_50/postnorm/FusedBatchNormV3/Mul", "op": "Mul", "input": ["StatefulPartitionedCall/sequential_1/keras_layer/StatefulPartitionedCall/StatefulPartitionedCall/StatefulPartitionedCall/predict/resnet_v2_50/block4/unit_3/bottleneck_v2/add", "StatefulPartitionedCall/sequential_1/keras_layer/StatefulPartitionedCall/StatefulPartitionedCall/StatefulPartitionedCall/predict/resnet_v2_50/postnorm/FusedBatchNormV3/Scaled"], "attr": {"T": {"type": "DT_FLOAT"}}}, {"name": "StatefulPartitionedCall/sequential_1/keras_layer/StatefulPartitionedCall/StatefulPartitionedCall/StatefulPartitionedCall/predict/resnet_v2_50/postnorm/FusedBatchNormV3", "op": "Add", "input": ["StatefulPartitionedCall/sequential_1/keras_layer/StatefulPartitionedCall/StatefulPartitionedCall/StatefulPartitionedCall/predict/resnet_v2_50/postnorm/FusedBatchNormV3/Mul", "StatefulPartitionedCall/sequential_1/keras_layer/StatefulPartitionedCall/StatefulPartitionedCall/StatefulPartitionedCall/predict/resnet_v2_50/postnorm/FusedBatchNormV3/Offset"], "attr": {"T": {"type": "DT_FLOAT"}}}, {"name": "StatefulPartitionedCall/sequential_1/keras_layer/StatefulPartitionedCall/StatefulPartitionedCall/StatefulPartitionedCall/predict/resnet_v2_50/postnorm/Relu", "op": "Relu", "input": ["StatefulPartitionedCall/sequential_1/keras_layer/StatefulPartitionedCall/StatefulPartitionedCall/StatefulPartitionedCall/predict/resnet_v2_50/postnorm/FusedBatchNormV3"], "attr": {"T": {"type": "DT_FLOAT"}}}, {"name": "StatefulPartitionedCall/sequential_1/keras_layer/StatefulPartitionedCall/StatefulPartitionedCall/StatefulPartitionedCall/predict/resnet_v2_50/pool5", "op": "Mean", "input": ["StatefulPartitionedCall/sequential_1/keras_layer/StatefulPartitionedCall/StatefulPartitionedCall/StatefulPartitionedCall/predict/resnet_v2_50/postnorm/Relu", "StatefulPartitionedCall/sequential_1/keras_layer/StatefulPartitionedCall/StatefulPartitionedCall/StatefulPartitionedCall/predict/resnet_v2_50/pool5/reduction_indices"], "attr": {"T": {"type": "DT_FLOAT"}, "keep_dims": {"b": true}, "Tidx": {"type": "DT_INT32"}}}, {"name": "StatefulPartitionedCall/sequential_1/keras_layer/StatefulPartitionedCall/StatefulPartitionedCall/StatefulPartitionedCall/predict/feature_vector/SpatialSqueeze", "op": "Squeeze", "input": ["StatefulPartitionedCall/sequential_1/keras_layer/StatefulPartitionedCall/StatefulPartitionedCall/StatefulPartitionedCall/predict/resnet_v2_50/pool5"], "attr": {"squeeze_dims": {"list": {"i": ["1", "2"]}}, "T": {"type": "DT_FLOAT"}}}, {"name": "StatefulPartitionedCall/sequential_1/hidden_layer/Relu", "op": "_FusedMatMul", "input": ["StatefulPartitionedCall/sequential_1/keras_layer/StatefulPartitionedCall/StatefulPartitionedCall/StatefulPartitionedCall/predict/feature_vector/SpatialSqueeze", "StatefulPartitionedCall/sequential_1/hidden_layer/MatMul/ReadVariableOp", "StatefulPartitionedCall/sequential_1/hidden_layer/BiasAdd/ReadVariableOp"], "device": "/device:CPU:0", "attr": {"transpose_b": {"b": false}, "num_args": {"i": "1"}, "epsilon": {"f": 0.0}, "fused_ops": {"list": {"s": ["Qmlhc0FkZA==", "UmVsdQ=="]}}, "leakyrelu_alpha": {"f": 0.2}, "transpose_a": {"b": false}, "T": {"type": "DT_FLOAT"}}}, {"name": "StatefulPartitionedCall/sequential_1/output/BiasAdd", "op": "_FusedMatMul", "input": ["StatefulPartitionedCall/sequential_1/hidden_layer/Relu", "StatefulPartitionedCall/sequential_1/output/MatMul/ReadVariableOp", "StatefulPartitionedCall/sequential_1/output/BiasAdd/ReadVariableOp"], "device": "/device:CPU:0", "attr": {"num_args": {"i": "1"}, "transpose_b": {"b": false}, "fused_ops": {"list": {"s": ["Qmlhc0FkZA=="]}}, "T": {"type": "DT_FLOAT"}, "epsilon": {"f": 0.0}, "transpose_a": {"b": false}, "leakyrelu_alpha": {"f": 0.2}}}, {"name": "StatefulPartitionedCall/sequential_1/output/Sigmoid", "op": "Sigmoid", "input": ["StatefulPartitionedCall/sequential_1/output/BiasAdd"], "attr": {"T": {"type": "DT_FLOAT"}}}, {"name": "Identity", "op": "Identity", "input": ["StatefulPartitionedCall/sequential_1/output/Sigmoid"], "attr": {"T": {"type": "DT_FLOAT"}}}], "library": {}, "versions": {"producer": 1645}}, "weightsManifest": [{"paths": ["group1-shard1of25.bin", "group1-shard2of25.bin", "group1-shard3of25.bin", "group1-shard4of25.bin", "group1-shard5of25.bin", "group1-shard6of25.bin", "group1-shard7of25.bin", "group1-shard8of25.bin", "group1-shard9of25.bin", "group1-shard10of25.bin", "group1-shard11of25.bin", "group1-shard12of25.bin", "group1-shard13of25.bin", "group1-shard14of25.bin", "group1-shard15of25.bin", "group1-shard16of25.bin", "group1-shard17of25.bin", "group1-shard18of25.bin", "group1-shard19of25.bin", "group1-shard20of25.bin", "group1-shard21of25.bin", "group1-shard22of25.bin", "group1-shard23of25.bin", "group1-shard24of25.bin", "group1-shard25of25.bin"], "weights": [{"name": "StatefulPartitionedCall/sequential_1/hidden_layer/MatMul/ReadVariableOp", "shape": [2048, 1024], "dtype": "float32"}, {"name": "StatefulPartitionedCall/sequential_1/hidden_layer/BiasAdd/ReadVariableOp", "shape": [1024], "dtype": "float32"}, {"name": "StatefulPartitionedCall/sequential_1/output/MatMul/ReadVariableOp", "shape": [1024, 29], "dtype": "float32"}, {"name": "StatefulPartitionedCall/sequential_1/output/BiasAdd/ReadVariableOp", "shape": [29], "dtype": "float32"}, {"name": "StatefulPartitionedCall/sequential_1/keras_layer/StatefulPartitionedCall/StatefulPartitionedCall/StatefulPartitionedCall/predict/resnet_v2_50/block1/unit_1/bottleneck_v2/conv1/Conv2D_weights", "shape": [1, 1, 64, 64], "dtype": "float32"}, {"name": "StatefulPartitionedCall/sequential_1/keras_layer/StatefulPartitionedCall/StatefulPartitionedCall/StatefulPartitionedCall/predict/resnet_v2_50/block1/unit_1/bottleneck_v2/conv1/Conv2D_bn_offset", "shape": [64], "dtype": "float32"}, {"name": "StatefulPartitionedCall/sequential_1/keras_layer/StatefulPartitionedCall/StatefulPartitionedCall/StatefulPartitionedCall/predict/resnet_v2_50/block1/unit_1/bottleneck_v2/conv2/Conv2D_weights", "shape": [3, 3, 64, 64], "dtype": "float32"}, {"name": "StatefulPartitionedCall/sequential_1/keras_layer/StatefulPartitionedCall/StatefulPartitionedCall/StatefulPartitionedCall/predict/resnet_v2_50/block1/unit_1/bottleneck_v2/conv2/Conv2D_bn_offset", "shape": [64], "dtype": "float32"}, {"name": "StatefulPartitionedCall/sequential_1/keras_layer/StatefulPartitionedCall/StatefulPartitionedCall/StatefulPartitionedCall/predict/resnet_v2_50/block1/unit_2/bottleneck_v2/conv1/Conv2D_weights", "shape": [1, 1, 256, 64], "dtype": "float32"}, {"name": "StatefulPartitionedCall/sequential_1/keras_layer/StatefulPartitionedCall/StatefulPartitionedCall/StatefulPartitionedCall/predict/resnet_v2_50/block1/unit_2/bottleneck_v2/conv1/Conv2D_bn_offset", "shape": [64], "dtype": "float32"}, {"name": "StatefulPartitionedCall/sequential_1/keras_layer/StatefulPartitionedCall/StatefulPartitionedCall/StatefulPartitionedCall/predict/resnet_v2_50/block1/unit_2/bottleneck_v2/conv2/Conv2D_weights", "shape": [3, 3, 64, 64], "dtype": "float32"}, {"name": "StatefulPartitionedCall/sequential_1/keras_layer/StatefulPartitionedCall/StatefulPartitionedCall/StatefulPartitionedCall/predict/resnet_v2_50/block1/unit_2/bottleneck_v2/conv2/Conv2D_bn_offset", "shape": [64], "dtype": "float32"}, {"name": "StatefulPartitionedCall/sequential_1/keras_layer/StatefulPartitionedCall/StatefulPartitionedCall/StatefulPartitionedCall/predict/resnet_v2_50/block1/unit_3/bottleneck_v2/conv1/Conv2D_weights", "shape": [1, 1, 256, 64], "dtype": "float32"}, {"name": "StatefulPartitionedCall/sequential_1/keras_layer/StatefulPartitionedCall/StatefulPartitionedCall/StatefulPartitionedCall/predict/resnet_v2_50/block1/unit_3/bottleneck_v2/conv1/Conv2D_bn_offset", "shape": [64], "dtype": "float32"}, {"name": "StatefulPartitionedCall/sequential_1/keras_layer/StatefulPartitionedCall/StatefulPartitionedCall/StatefulPartitionedCall/predict/resnet_v2_50/block1/unit_3/bottleneck_v2/conv2/Conv2D_weights", "shape": [3, 3, 64, 64], "dtype": "float32"}, {"name": "StatefulPartitionedCall/sequential_1/keras_layer/StatefulPartitionedCall/StatefulPartitionedCall/StatefulPartitionedCall/predict/resnet_v2_50/block1/unit_3/bottleneck_v2/conv2/Conv2D_bn_offset", "shape": [64], "dtype": "float32"}, {"name": "StatefulPartitionedCall/sequential_1/keras_layer/StatefulPartitionedCall/StatefulPartitionedCall/StatefulPartitionedCall/predict/resnet_v2_50/block2/unit_1/bottleneck_v2/conv1/Conv2D_weights", "shape": [1, 1, 256, 128], "dtype": "float32"}, {"name": "StatefulPartitionedCall/sequential_1/keras_layer/StatefulPartitionedCall/StatefulPartitionedCall/StatefulPartitionedCall/predict/resnet_v2_50/block2/unit_1/bottleneck_v2/conv1/Conv2D_bn_offset", "shape": [128], "dtype": "float32"}, {"name": "StatefulPartitionedCall/sequential_1/keras_layer/StatefulPartitionedCall/StatefulPartitionedCall/StatefulPartitionedCall/predict/resnet_v2_50/block2/unit_1/bottleneck_v2/conv2/Conv2D_weights", "shape": [3, 3, 128, 128], "dtype": "float32"}, {"name": "StatefulPartitionedCall/sequential_1/keras_layer/StatefulPartitionedCall/StatefulPartitionedCall/StatefulPartitionedCall/predict/resnet_v2_50/block2/unit_1/bottleneck_v2/conv2/Conv2D_bn_offset", "shape": [128], "dtype": "float32"}, {"name": "StatefulPartitionedCall/sequential_1/keras_layer/StatefulPartitionedCall/StatefulPartitionedCall/StatefulPartitionedCall/predict/resnet_v2_50/block2/unit_2/bottleneck_v2/conv1/Conv2D_weights", "shape": [1, 1, 512, 128], "dtype": "float32"}, {"name": "StatefulPartitionedCall/sequential_1/keras_layer/StatefulPartitionedCall/StatefulPartitionedCall/StatefulPartitionedCall/predict/resnet_v2_50/block2/unit_2/bottleneck_v2/conv1/Conv2D_bn_offset", "shape": [128], "dtype": "float32"}, {"name": "StatefulPartitionedCall/sequential_1/keras_layer/StatefulPartitionedCall/StatefulPartitionedCall/StatefulPartitionedCall/predict/resnet_v2_50/block2/unit_2/bottleneck_v2/conv2/Conv2D_weights", "shape": [3, 3, 128, 128], "dtype": "float32"}, {"name": "StatefulPartitionedCall/sequential_1/keras_layer/StatefulPartitionedCall/StatefulPartitionedCall/StatefulPartitionedCall/predict/resnet_v2_50/block2/unit_2/bottleneck_v2/conv2/Conv2D_bn_offset", "shape": [128], "dtype": "float32"}, {"name": "StatefulPartitionedCall/sequential_1/keras_layer/StatefulPartitionedCall/StatefulPartitionedCall/StatefulPartitionedCall/predict/resnet_v2_50/block2/unit_3/bottleneck_v2/conv1/Conv2D_weights", "shape": [1, 1, 512, 128], "dtype": "float32"}, {"name": "StatefulPartitionedCall/sequential_1/keras_layer/StatefulPartitionedCall/StatefulPartitionedCall/StatefulPartitionedCall/predict/resnet_v2_50/block2/unit_3/bottleneck_v2/conv1/Conv2D_bn_offset", "shape": [128], "dtype": "float32"}, {"name": "StatefulPartitionedCall/sequential_1/keras_layer/StatefulPartitionedCall/StatefulPartitionedCall/StatefulPartitionedCall/predict/resnet_v2_50/block2/unit_3/bottleneck_v2/conv2/Conv2D_weights", "shape": [3, 3, 128, 128], "dtype": "float32"}, {"name": "StatefulPartitionedCall/sequential_1/keras_layer/StatefulPartitionedCall/StatefulPartitionedCall/StatefulPartitionedCall/predict/resnet_v2_50/block2/unit_3/bottleneck_v2/conv2/Conv2D_bn_offset", "shape": [128], "dtype": "float32"}, {"name": "StatefulPartitionedCall/sequential_1/keras_layer/StatefulPartitionedCall/StatefulPartitionedCall/StatefulPartitionedCall/predict/resnet_v2_50/block2/unit_4/bottleneck_v2/conv1/Conv2D_weights", "shape": [1, 1, 512, 128], "dtype": "float32"}, {"name": "StatefulPartitionedCall/sequential_1/keras_layer/StatefulPartitionedCall/StatefulPartitionedCall/StatefulPartitionedCall/predict/resnet_v2_50/block2/unit_4/bottleneck_v2/conv1/Conv2D_bn_offset", "shape": [128], "dtype": "float32"}, {"name": "StatefulPartitionedCall/sequential_1/keras_layer/StatefulPartitionedCall/StatefulPartitionedCall/StatefulPartitionedCall/predict/resnet_v2_50/block2/unit_4/bottleneck_v2/conv2/Conv2D_weights", "shape": [3, 3, 128, 128], "dtype": "float32"}, {"name": "StatefulPartitionedCall/sequential_1/keras_layer/StatefulPartitionedCall/StatefulPartitionedCall/StatefulPartitionedCall/predict/resnet_v2_50/block2/unit_4/bottleneck_v2/conv2/Conv2D_bn_offset", "shape": [128], "dtype": "float32"}, {"name": "StatefulPartitionedCall/sequential_1/keras_layer/StatefulPartitionedCall/StatefulPartitionedCall/StatefulPartitionedCall/predict/resnet_v2_50/block3/unit_1/bottleneck_v2/conv1/Conv2D_weights", "shape": [1, 1, 512, 256], "dtype": "float32"}, {"name": "StatefulPartitionedCall/sequential_1/keras_layer/StatefulPartitionedCall/StatefulPartitionedCall/StatefulPartitionedCall/predict/resnet_v2_50/block3/unit_1/bottleneck_v2/conv1/Conv2D_bn_offset", "shape": [256], "dtype": "float32"}, {"name": "StatefulPartitionedCall/sequential_1/keras_layer/StatefulPartitionedCall/StatefulPartitionedCall/StatefulPartitionedCall/predict/resnet_v2_50/block3/unit_1/bottleneck_v2/conv2/Conv2D_weights", "shape": [3, 3, 256, 256], "dtype": "float32"}, {"name": "StatefulPartitionedCall/sequential_1/keras_layer/StatefulPartitionedCall/StatefulPartitionedCall/StatefulPartitionedCall/predict/resnet_v2_50/block3/unit_1/bottleneck_v2/conv2/Conv2D_bn_offset", "shape": [256], "dtype": "float32"}, {"name": "StatefulPartitionedCall/sequential_1/keras_layer/StatefulPartitionedCall/StatefulPartitionedCall/StatefulPartitionedCall/predict/resnet_v2_50/block3/unit_2/bottleneck_v2/conv1/Conv2D_weights", "shape": [1, 1, 1024, 256], "dtype": "float32"}, {"name": "StatefulPartitionedCall/sequential_1/keras_layer/StatefulPartitionedCall/StatefulPartitionedCall/StatefulPartitionedCall/predict/resnet_v2_50/block3/unit_2/bottleneck_v2/conv1/Conv2D_bn_offset", "shape": [256], "dtype": "float32"}, {"name": "StatefulPartitionedCall/sequential_1/keras_layer/StatefulPartitionedCall/StatefulPartitionedCall/StatefulPartitionedCall/predict/resnet_v2_50/block3/unit_2/bottleneck_v2/conv2/Conv2D_weights", "shape": [3, 3, 256, 256], "dtype": "float32"}, {"name": "StatefulPartitionedCall/sequential_1/keras_layer/StatefulPartitionedCall/StatefulPartitionedCall/StatefulPartitionedCall/predict/resnet_v2_50/block3/unit_2/bottleneck_v2/conv2/Conv2D_bn_offset", "shape": [256], "dtype": "float32"}, {"name": "StatefulPartitionedCall/sequential_1/keras_layer/StatefulPartitionedCall/StatefulPartitionedCall/StatefulPartitionedCall/predict/resnet_v2_50/block3/unit_3/bottleneck_v2/conv1/Conv2D_weights", "shape": [1, 1, 1024, 256], "dtype": "float32"}, {"name": "StatefulPartitionedCall/sequential_1/keras_layer/StatefulPartitionedCall/StatefulPartitionedCall/StatefulPartitionedCall/predict/resnet_v2_50/block3/unit_3/bottleneck_v2/conv1/Conv2D_bn_offset", "shape": [256], "dtype": "float32"}, {"name": "StatefulPartitionedCall/sequential_1/keras_layer/StatefulPartitionedCall/StatefulPartitionedCall/StatefulPartitionedCall/predict/resnet_v2_50/block3/unit_3/bottleneck_v2/conv2/Conv2D_weights", "shape": [3, 3, 256, 256], "dtype": "float32"}, {"name": "StatefulPartitionedCall/sequential_1/keras_layer/StatefulPartitionedCall/StatefulPartitionedCall/StatefulPartitionedCall/predict/resnet_v2_50/block3/unit_3/bottleneck_v2/conv2/Conv2D_bn_offset", "shape": [256], "dtype": "float32"}, {"name": "StatefulPartitionedCall/sequential_1/keras_layer/StatefulPartitionedCall/StatefulPartitionedCall/StatefulPartitionedCall/predict/resnet_v2_50/block3/unit_4/bottleneck_v2/conv1/Conv2D_weights", "shape": [1, 1, 1024, 256], "dtype": "float32"}, {"name": "StatefulPartitionedCall/sequential_1/keras_layer/StatefulPartitionedCall/StatefulPartitionedCall/StatefulPartitionedCall/predict/resnet_v2_50/block3/unit_4/bottleneck_v2/conv1/Conv2D_bn_offset", "shape": [256], "dtype": "float32"}, {"name": "StatefulPartitionedCall/sequential_1/keras_layer/StatefulPartitionedCall/StatefulPartitionedCall/StatefulPartitionedCall/predict/resnet_v2_50/block3/unit_4/bottleneck_v2/conv2/Conv2D_weights", "shape": [3, 3, 256, 256], "dtype": "float32"}, {"name": "StatefulPartitionedCall/sequential_1/keras_layer/StatefulPartitionedCall/StatefulPartitionedCall/StatefulPartitionedCall/predict/resnet_v2_50/block3/unit_4/bottleneck_v2/conv2/Conv2D_bn_offset", "shape": [256], "dtype": "float32"}, {"name": "StatefulPartitionedCall/sequential_1/keras_layer/StatefulPartitionedCall/StatefulPartitionedCall/StatefulPartitionedCall/predict/resnet_v2_50/block3/unit_5/bottleneck_v2/conv1/Conv2D_weights", "shape": [1, 1, 1024, 256], "dtype": "float32"}, {"name": "StatefulPartitionedCall/sequential_1/keras_layer/StatefulPartitionedCall/StatefulPartitionedCall/StatefulPartitionedCall/predict/resnet_v2_50/block3/unit_5/bottleneck_v2/conv1/Conv2D_bn_offset", "shape": [256], "dtype": "float32"}, {"name": "StatefulPartitionedCall/sequential_1/keras_layer/StatefulPartitionedCall/StatefulPartitionedCall/StatefulPartitionedCall/predict/resnet_v2_50/block3/unit_5/bottleneck_v2/conv2/Conv2D_weights", "shape": [3, 3, 256, 256], "dtype": "float32"}, {"name": "StatefulPartitionedCall/sequential_1/keras_layer/StatefulPartitionedCall/StatefulPartitionedCall/StatefulPartitionedCall/predict/resnet_v2_50/block3/unit_5/bottleneck_v2/conv2/Conv2D_bn_offset", "shape": [256], "dtype": "float32"}, {"name": "StatefulPartitionedCall/sequential_1/keras_layer/StatefulPartitionedCall/StatefulPartitionedCall/StatefulPartitionedCall/predict/resnet_v2_50/block3/unit_6/bottleneck_v2/conv1/Conv2D_weights", "shape": [1, 1, 1024, 256], "dtype": "float32"}, {"name": "StatefulPartitionedCall/sequential_1/keras_layer/StatefulPartitionedCall/StatefulPartitionedCall/StatefulPartitionedCall/predict/resnet_v2_50/block3/unit_6/bottleneck_v2/conv1/Conv2D_bn_offset", "shape": [256], "dtype": "float32"}, {"name": "StatefulPartitionedCall/sequential_1/keras_layer/StatefulPartitionedCall/StatefulPartitionedCall/StatefulPartitionedCall/predict/resnet_v2_50/block3/unit_6/bottleneck_v2/conv2/Conv2D_weights", "shape": [3, 3, 256, 256], "dtype": "float32"}, {"name": "StatefulPartitionedCall/sequential_1/keras_layer/StatefulPartitionedCall/StatefulPartitionedCall/StatefulPartitionedCall/predict/resnet_v2_50/block3/unit_6/bottleneck_v2/conv2/Conv2D_bn_offset", "shape": [256], "dtype": "float32"}, {"name": "StatefulPartitionedCall/sequential_1/keras_layer/StatefulPartitionedCall/StatefulPartitionedCall/StatefulPartitionedCall/predict/resnet_v2_50/block4/unit_1/bottleneck_v2/conv1/Conv2D_weights", "shape": [1, 1, 1024, 512], "dtype": "float32"}, {"name": "StatefulPartitionedCall/sequential_1/keras_layer/StatefulPartitionedCall/StatefulPartitionedCall/StatefulPartitionedCall/predict/resnet_v2_50/block4/unit_1/bottleneck_v2/conv1/Conv2D_bn_offset", "shape": [512], "dtype": "float32"}, {"name": "StatefulPartitionedCall/sequential_1/keras_layer/StatefulPartitionedCall/StatefulPartitionedCall/StatefulPartitionedCall/predict/resnet_v2_50/block4/unit_1/bottleneck_v2/conv2/Conv2D_weights", "shape": [3, 3, 512, 512], "dtype": "float32"}, {"name": "StatefulPartitionedCall/sequential_1/keras_layer/StatefulPartitionedCall/StatefulPartitionedCall/StatefulPartitionedCall/predict/resnet_v2_50/block4/unit_1/bottleneck_v2/conv2/Conv2D_bn_offset", "shape": [512], "dtype": "float32"}, {"name": "StatefulPartitionedCall/sequential_1/keras_layer/StatefulPartitionedCall/StatefulPartitionedCall/StatefulPartitionedCall/predict/resnet_v2_50/block4/unit_2/bottleneck_v2/conv1/Conv2D_weights", "shape": [1, 1, 2048, 512], "dtype": "float32"}, {"name": "StatefulPartitionedCall/sequential_1/keras_layer/StatefulPartitionedCall/StatefulPartitionedCall/StatefulPartitionedCall/predict/resnet_v2_50/block4/unit_2/bottleneck_v2/conv1/Conv2D_bn_offset", "shape": [512], "dtype": "float32"}, {"name": "StatefulPartitionedCall/sequential_1/keras_layer/StatefulPartitionedCall/StatefulPartitionedCall/StatefulPartitionedCall/predict/resnet_v2_50/block4/unit_2/bottleneck_v2/conv2/Conv2D_weights", "shape": [3, 3, 512, 512], "dtype": "float32"}, {"name": "StatefulPartitionedCall/sequential_1/keras_layer/StatefulPartitionedCall/StatefulPartitionedCall/StatefulPartitionedCall/predict/resnet_v2_50/block4/unit_2/bottleneck_v2/conv2/Conv2D_bn_offset", "shape": [512], "dtype": "float32"}, {"name": "StatefulPartitionedCall/sequential_1/keras_layer/StatefulPartitionedCall/StatefulPartitionedCall/StatefulPartitionedCall/predict/resnet_v2_50/block4/unit_3/bottleneck_v2/conv1/Conv2D_weights", "shape": [1, 1, 2048, 512], "dtype": "float32"}, {"name": "StatefulPartitionedCall/sequential_1/keras_layer/StatefulPartitionedCall/StatefulPartitionedCall/StatefulPartitionedCall/predict/resnet_v2_50/block4/unit_3/bottleneck_v2/conv1/Conv2D_bn_offset", "shape": [512], "dtype": "float32"}, {"name": "StatefulPartitionedCall/sequential_1/keras_layer/StatefulPartitionedCall/StatefulPartitionedCall/StatefulPartitionedCall/predict/resnet_v2_50/block4/unit_3/bottleneck_v2/conv2/Conv2D_weights", "shape": [3, 3, 512, 512], "dtype": "float32"}, {"name": "StatefulPartitionedCall/sequential_1/keras_layer/StatefulPartitionedCall/StatefulPartitionedCall/StatefulPartitionedCall/predict/resnet_v2_50/block4/unit_3/bottleneck_v2/conv2/Conv2D_bn_offset", "shape": [512], "dtype": "float32"}, {"name": "Func/StatefulPartitionedCall/sequential_1/keras_layer/StatefulPartitionedCall/StatefulPartitionedCall/StatefulPartitionedCall/input/_1049", "shape": [1, 1, 1024, 2048], "dtype": "float32"}, {"name": "Func/StatefulPartitionedCall/sequential_1/keras_layer/StatefulPartitionedCall/StatefulPartitionedCall/StatefulPartitionedCall/input/_1050", "shape": [2048], "dtype": "float32"}, {"name": "Func/StatefulPartitionedCall/sequential_1/keras_layer/StatefulPartitionedCall/StatefulPartitionedCall/StatefulPartitionedCall/input/_951", "shape": [1, 1, 512, 1024], "dtype": "float32"}, {"name": "Func/StatefulPartitionedCall/sequential_1/keras_layer/StatefulPartitionedCall/StatefulPartitionedCall/StatefulPartitionedCall/input/_952", "shape": [1024], "dtype": "float32"}, {"name": "Func/StatefulPartitionedCall/sequential_1/keras_layer/StatefulPartitionedCall/StatefulPartitionedCall/StatefulPartitionedCall/input/_885", "shape": [1, 1, 256, 512], "dtype": "float32"}, {"name": "Func/StatefulPartitionedCall/sequential_1/keras_layer/StatefulPartitionedCall/StatefulPartitionedCall/StatefulPartitionedCall/input/_886", "shape": [512], "dtype": "float32"}, {"name": "Func/StatefulPartitionedCall/sequential_1/keras_layer/StatefulPartitionedCall/StatefulPartitionedCall/StatefulPartitionedCall/input/_835", "shape": [1, 1, 64, 256], "dtype": "float32"}, {"name": "Func/StatefulPartitionedCall/sequential_1/keras_layer/StatefulPartitionedCall/StatefulPartitionedCall/StatefulPartitionedCall/input/_836", "shape": [256], "dtype": "float32"}, {"name": "StatefulPartitionedCall/sequential_1/keras_layer/StatefulPartitionedCall/StatefulPartitionedCall/StatefulPartitionedCall/predict/hub_input/Mul/y", "shape": [], "dtype": "float32"}, {"name": "StatefulPartitionedCall/sequential_1/keras_layer/StatefulPartitionedCall/StatefulPartitionedCall/StatefulPartitionedCall/predict/hub_input/Sub/y", "shape": [], "dtype": "float32"}, {"name": "StatefulPartitionedCall/sequential_1/keras_layer/StatefulPartitionedCall/StatefulPartitionedCall/StatefulPartitionedCall/predict/resnet_v2_50/Pad/paddings", "shape": [4, 2], "dtype": "int32"}, {"name": "Func/StatefulPartitionedCall/sequential_1/keras_layer/StatefulPartitionedCall/StatefulPartitionedCall/StatefulPartitionedCall/input/_829", "shape": [7, 7, 3, 64], "dtype": "float32"}, {"name": "StatefulPartitionedCall/sequential_1/keras_layer/StatefulPartitionedCall/StatefulPartitionedCall/StatefulPartitionedCall/predict/resnet_v2_50/block3/unit_6/bottleneck_v2/preact/FusedBatchNormV3/Scaled", "shape": [1024], "dtype": "float32"}, {"name": "Func/StatefulPartitionedCall/sequential_1/keras_layer/StatefulPartitionedCall/StatefulPartitionedCall/StatefulPartitionedCall/input/_830", "shape": [64], "dtype": "float32"}, {"name": "Func/StatefulPartitionedCall/sequential_1/keras_layer/StatefulPartitionedCall/StatefulPartitionedCall/StatefulPartitionedCall/input/_847", "shape": [1, 1, 64, 256], "dtype": "float32"}, {"name": "Func/StatefulPartitionedCall/sequential_1/keras_layer/StatefulPartitionedCall/StatefulPartitionedCall/StatefulPartitionedCall/input/_848", "shape": [256], "dtype": "float32"}, {"name": "Func/StatefulPartitionedCall/sequential_1/keras_layer/StatefulPartitionedCall/StatefulPartitionedCall/StatefulPartitionedCall/input/_863", "shape": [1, 1, 64, 256], "dtype": "float32"}, {"name": "Func/StatefulPartitionedCall/sequential_1/keras_layer/StatefulPartitionedCall/StatefulPartitionedCall/StatefulPartitionedCall/input/_864", "shape": [256], "dtype": "float32"}, {"name": "StatefulPartitionedCall/sequential_1/keras_layer/StatefulPartitionedCall/StatefulPartitionedCall/StatefulPartitionedCall/predict/resnet_v2_50/block1/unit_3/bottleneck_v2/Pad/paddings", "shape": [4, 2], "dtype": "int32"}, {"name": "Func/StatefulPartitionedCall/sequential_1/keras_layer/StatefulPartitionedCall/StatefulPartitionedCall/StatefulPartitionedCall/input/_879", "shape": [1, 1, 64, 256], "dtype": "float32"}, {"name": "Func/StatefulPartitionedCall/sequential_1/keras_layer/StatefulPartitionedCall/StatefulPartitionedCall/StatefulPartitionedCall/input/_880", "shape": [256], "dtype": "float32"}, {"name": "Func/StatefulPartitionedCall/sequential_1/keras_layer/StatefulPartitionedCall/StatefulPartitionedCall/StatefulPartitionedCall/input/_897", "shape": [1, 1, 128, 512], "dtype": "float32"}, {"name": "Func/StatefulPartitionedCall/sequential_1/keras_layer/StatefulPartitionedCall/StatefulPartitionedCall/StatefulPartitionedCall/input/_898", "shape": [512], "dtype": "float32"}, {"name": "Func/StatefulPartitionedCall/sequential_1/keras_layer/StatefulPartitionedCall/StatefulPartitionedCall/StatefulPartitionedCall/input/_913", "shape": [1, 1, 128, 512], "dtype": "float32"}, {"name": "Func/StatefulPartitionedCall/sequential_1/keras_layer/StatefulPartitionedCall/StatefulPartitionedCall/StatefulPartitionedCall/input/_914", "shape": [512], "dtype": "float32"}, {"name": "Func/StatefulPartitionedCall/sequential_1/keras_layer/StatefulPartitionedCall/StatefulPartitionedCall/StatefulPartitionedCall/input/_929", "shape": [1, 1, 128, 512], "dtype": "float32"}, {"name": "Func/StatefulPartitionedCall/sequential_1/keras_layer/StatefulPartitionedCall/StatefulPartitionedCall/StatefulPartitionedCall/input/_930", "shape": [512], "dtype": "float32"}, {"name": "StatefulPartitionedCall/sequential_1/keras_layer/StatefulPartitionedCall/StatefulPartitionedCall/StatefulPartitionedCall/predict/resnet_v2_50/block2/unit_4/bottleneck_v2/Pad/paddings", "shape": [4, 2], "dtype": "int32"}, {"name": "Func/StatefulPartitionedCall/sequential_1/keras_layer/StatefulPartitionedCall/StatefulPartitionedCall/StatefulPartitionedCall/input/_945", "shape": [1, 1, 128, 512], "dtype": "float32"}, {"name": "Func/StatefulPartitionedCall/sequential_1/keras_layer/StatefulPartitionedCall/StatefulPartitionedCall/StatefulPartitionedCall/input/_946", "shape": [512], "dtype": "float32"}, {"name": "Func/StatefulPartitionedCall/sequential_1/keras_layer/StatefulPartitionedCall/StatefulPartitionedCall/StatefulPartitionedCall/input/_963", "shape": [1, 1, 256, 1024], "dtype": "float32"}, {"name": "Func/StatefulPartitionedCall/sequential_1/keras_layer/StatefulPartitionedCall/StatefulPartitionedCall/StatefulPartitionedCall/input/_964", "shape": [1024], "dtype": "float32"}, {"name": "Func/StatefulPartitionedCall/sequential_1/keras_layer/StatefulPartitionedCall/StatefulPartitionedCall/StatefulPartitionedCall/input/_979", "shape": [1, 1, 256, 1024], "dtype": "float32"}, {"name": "Func/StatefulPartitionedCall/sequential_1/keras_layer/StatefulPartitionedCall/StatefulPartitionedCall/StatefulPartitionedCall/input/_980", "shape": [1024], "dtype": "float32"}, {"name": "Func/StatefulPartitionedCall/sequential_1/keras_layer/StatefulPartitionedCall/StatefulPartitionedCall/StatefulPartitionedCall/input/_995", "shape": [1, 1, 256, 1024], "dtype": "float32"}, {"name": "Func/StatefulPartitionedCall/sequential_1/keras_layer/StatefulPartitionedCall/StatefulPartitionedCall/StatefulPartitionedCall/input/_996", "shape": [1024], "dtype": "float32"}, {"name": "Func/StatefulPartitionedCall/sequential_1/keras_layer/StatefulPartitionedCall/StatefulPartitionedCall/StatefulPartitionedCall/input/_1011", "shape": [1, 1, 256, 1024], "dtype": "float32"}, {"name": "Func/StatefulPartitionedCall/sequential_1/keras_layer/StatefulPartitionedCall/StatefulPartitionedCall/StatefulPartitionedCall/input/_1012", "shape": [1024], "dtype": "float32"}, {"name": "Func/StatefulPartitionedCall/sequential_1/keras_layer/StatefulPartitionedCall/StatefulPartitionedCall/StatefulPartitionedCall/input/_1027", "shape": [1, 1, 256, 1024], "dtype": "float32"}, {"name": "Func/StatefulPartitionedCall/sequential_1/keras_layer/StatefulPartitionedCall/StatefulPartitionedCall/StatefulPartitionedCall/input/_1028", "shape": [1024], "dtype": "float32"}, {"name": "StatefulPartitionedCall/sequential_1/keras_layer/StatefulPartitionedCall/StatefulPartitionedCall/StatefulPartitionedCall/predict/resnet_v2_50/block3/unit_6/bottleneck_v2/Pad/paddings", "shape": [4, 2], "dtype": "int32"}, {"name": "Func/StatefulPartitionedCall/sequential_1/keras_layer/StatefulPartitionedCall/StatefulPartitionedCall/StatefulPartitionedCall/input/_1043", "shape": [1, 1, 256, 1024], "dtype": "float32"}, {"name": "Func/StatefulPartitionedCall/sequential_1/keras_layer/StatefulPartitionedCall/StatefulPartitionedCall/StatefulPartitionedCall/input/_1044", "shape": [1024], "dtype": "float32"}, {"name": "Func/StatefulPartitionedCall/sequential_1/keras_layer/StatefulPartitionedCall/StatefulPartitionedCall/StatefulPartitionedCall/input/_1061", "shape": [1, 1, 512, 2048], "dtype": "float32"}, {"name": "Func/StatefulPartitionedCall/sequential_1/keras_layer/StatefulPartitionedCall/StatefulPartitionedCall/StatefulPartitionedCall/input/_1062", "shape": [2048], "dtype": "float32"}, {"name": "Func/StatefulPartitionedCall/sequential_1/keras_layer/StatefulPartitionedCall/StatefulPartitionedCall/StatefulPartitionedCall/input/_1077", "shape": [1, 1, 512, 2048], "dtype": "float32"}, {"name": "Func/StatefulPartitionedCall/sequential_1/keras_layer/StatefulPartitionedCall/StatefulPartitionedCall/StatefulPartitionedCall/input/_1078", "shape": [2048], "dtype": "float32"}, {"name": "Func/StatefulPartitionedCall/sequential_1/keras_layer/StatefulPartitionedCall/StatefulPartitionedCall/StatefulPartitionedCall/input/_1093", "shape": [1, 1, 512, 2048], "dtype": "float32"}, {"name": "Func/StatefulPartitionedCall/sequential_1/keras_layer/StatefulPartitionedCall/StatefulPartitionedCall/StatefulPartitionedCall/input/_1094", "shape": [2048], "dtype": "float32"}, {"name": "StatefulPartitionedCall/sequential_1/keras_layer/StatefulPartitionedCall/StatefulPartitionedCall/StatefulPartitionedCall/predict/resnet_v2_50/pool5/reduction_indices", "shape": [2], "dtype": "int32"}, {"name": "StatefulPartitionedCall/sequential_1/keras_layer/StatefulPartitionedCall/StatefulPartitionedCall/StatefulPartitionedCall/predict/resnet_v2_50/block3/unit_6/bottleneck_v2/preact/FusedBatchNormV3/Offset", "shape": [1024], "dtype": "float32"}, {"name": "StatefulPartitionedCall/sequential_1/keras_layer/StatefulPartitionedCall/StatefulPartitionedCall/StatefulPartitionedCall/predict/resnet_v2_50/block3/unit_5/bottleneck_v2/preact/FusedBatchNormV3/Scaled", "shape": [1024], "dtype": "float32"}, {"name": "StatefulPartitionedCall/sequential_1/keras_layer/StatefulPartitionedCall/StatefulPartitionedCall/StatefulPartitionedCall/predict/resnet_v2_50/block3/unit_5/bottleneck_v2/preact/FusedBatchNormV3/Offset", "shape": [1024], "dtype": "float32"}, {"name": "StatefulPartitionedCall/sequential_1/keras_layer/StatefulPartitionedCall/StatefulPartitionedCall/StatefulPartitionedCall/predict/resnet_v2_50/block3/unit_4/bottleneck_v2/preact/FusedBatchNormV3/Scaled", "shape": [1024], "dtype": "float32"}, {"name": "StatefulPartitionedCall/sequential_1/keras_layer/StatefulPartitionedCall/StatefulPartitionedCall/StatefulPartitionedCall/predict/resnet_v2_50/block3/unit_4/bottleneck_v2/preact/FusedBatchNormV3/Offset", "shape": [1024], "dtype": "float32"}, {"name": "StatefulPartitionedCall/sequential_1/keras_layer/StatefulPartitionedCall/StatefulPartitionedCall/StatefulPartitionedCall/predict/resnet_v2_50/block3/unit_3/bottleneck_v2/preact/FusedBatchNormV3/Scaled", "shape": [1024], "dtype": "float32"}, {"name": "StatefulPartitionedCall/sequential_1/keras_layer/StatefulPartitionedCall/StatefulPartitionedCall/StatefulPartitionedCall/predict/resnet_v2_50/block3/unit_3/bottleneck_v2/preact/FusedBatchNormV3/Offset", "shape": [1024], "dtype": "float32"}, {"name": "StatefulPartitionedCall/sequential_1/keras_layer/StatefulPartitionedCall/StatefulPartitionedCall/StatefulPartitionedCall/predict/resnet_v2_50/block3/unit_2/bottleneck_v2/preact/FusedBatchNormV3/Scaled", "shape": [1024], "dtype": "float32"}, {"name": "StatefulPartitionedCall/sequential_1/keras_layer/StatefulPartitionedCall/StatefulPartitionedCall/StatefulPartitionedCall/predict/resnet_v2_50/block3/unit_2/bottleneck_v2/preact/FusedBatchNormV3/Offset", "shape": [1024], "dtype": "float32"}, {"name": "StatefulPartitionedCall/sequential_1/keras_layer/StatefulPartitionedCall/StatefulPartitionedCall/StatefulPartitionedCall/predict/resnet_v2_50/block3/unit_1/bottleneck_v2/preact/FusedBatchNormV3/Scaled", "shape": [512], "dtype": "float32"}, {"name": "StatefulPartitionedCall/sequential_1/keras_layer/StatefulPartitionedCall/StatefulPartitionedCall/StatefulPartitionedCall/predict/resnet_v2_50/block3/unit_1/bottleneck_v2/preact/FusedBatchNormV3/Offset", "shape": [512], "dtype": "float32"}, {"name": "StatefulPartitionedCall/sequential_1/keras_layer/StatefulPartitionedCall/StatefulPartitionedCall/StatefulPartitionedCall/predict/resnet_v2_50/block2/unit_4/bottleneck_v2/preact/FusedBatchNormV3/Scaled", "shape": [512], "dtype": "float32"}, {"name": "StatefulPartitionedCall/sequential_1/keras_layer/StatefulPartitionedCall/StatefulPartitionedCall/StatefulPartitionedCall/predict/resnet_v2_50/block2/unit_4/bottleneck_v2/preact/FusedBatchNormV3/Offset", "shape": [512], "dtype": "float32"}, {"name": "StatefulPartitionedCall/sequential_1/keras_layer/StatefulPartitionedCall/StatefulPartitionedCall/StatefulPartitionedCall/predict/resnet_v2_50/block2/unit_3/bottleneck_v2/preact/FusedBatchNormV3/Scaled", "shape": [512], "dtype": "float32"}, {"name": "StatefulPartitionedCall/sequential_1/keras_layer/StatefulPartitionedCall/StatefulPartitionedCall/StatefulPartitionedCall/predict/resnet_v2_50/block2/unit_3/bottleneck_v2/preact/FusedBatchNormV3/Offset", "shape": [512], "dtype": "float32"}, {"name": "StatefulPartitionedCall/sequential_1/keras_layer/StatefulPartitionedCall/StatefulPartitionedCall/StatefulPartitionedCall/predict/resnet_v2_50/block2/unit_2/bottleneck_v2/preact/FusedBatchNormV3/Scaled", "shape": [512], "dtype": "float32"}, {"name": "StatefulPartitionedCall/sequential_1/keras_layer/StatefulPartitionedCall/StatefulPartitionedCall/StatefulPartitionedCall/predict/resnet_v2_50/block2/unit_2/bottleneck_v2/preact/FusedBatchNormV3/Offset", "shape": [512], "dtype": "float32"}, {"name": "StatefulPartitionedCall/sequential_1/keras_layer/StatefulPartitionedCall/StatefulPartitionedCall/StatefulPartitionedCall/predict/resnet_v2_50/block2/unit_1/bottleneck_v2/preact/FusedBatchNormV3/Scaled", "shape": [256], "dtype": "float32"}, {"name": "StatefulPartitionedCall/sequential_1/keras_layer/StatefulPartitionedCall/StatefulPartitionedCall/StatefulPartitionedCall/predict/resnet_v2_50/block2/unit_1/bottleneck_v2/preact/FusedBatchNormV3/Offset", "shape": [256], "dtype": "float32"}, {"name": "StatefulPartitionedCall/sequential_1/keras_layer/StatefulPartitionedCall/StatefulPartitionedCall/StatefulPartitionedCall/predict/resnet_v2_50/block1/unit_3/bottleneck_v2/preact/FusedBatchNormV3/Scaled", "shape": [256], "dtype": "float32"}, {"name": "StatefulPartitionedCall/sequential_1/keras_layer/StatefulPartitionedCall/StatefulPartitionedCall/StatefulPartitionedCall/predict/resnet_v2_50/block1/unit_3/bottleneck_v2/preact/FusedBatchNormV3/Offset", "shape": [256], "dtype": "float32"}, {"name": "StatefulPartitionedCall/sequential_1/keras_layer/StatefulPartitionedCall/StatefulPartitionedCall/StatefulPartitionedCall/predict/resnet_v2_50/block1/unit_2/bottleneck_v2/preact/FusedBatchNormV3/Scaled", "shape": [256], "dtype": "float32"}, {"name": "StatefulPartitionedCall/sequential_1/keras_layer/StatefulPartitionedCall/StatefulPartitionedCall/StatefulPartitionedCall/predict/resnet_v2_50/block1/unit_2/bottleneck_v2/preact/FusedBatchNormV3/Offset", "shape": [256], "dtype": "float32"}, {"name": "StatefulPartitionedCall/sequential_1/keras_layer/StatefulPartitionedCall/StatefulPartitionedCall/StatefulPartitionedCall/predict/resnet_v2_50/block1/unit_1/bottleneck_v2/preact/FusedBatchNormV3/Scaled", "shape": [64], "dtype": "float32"}, {"name": "StatefulPartitionedCall/sequential_1/keras_layer/StatefulPartitionedCall/StatefulPartitionedCall/StatefulPartitionedCall/predict/resnet_v2_50/block1/unit_1/bottleneck_v2/preact/FusedBatchNormV3/Offset", "shape": [64], "dtype": "float32"}, {"name": "StatefulPartitionedCall/sequential_1/keras_layer/StatefulPartitionedCall/StatefulPartitionedCall/StatefulPartitionedCall/predict/resnet_v2_50/postnorm/FusedBatchNormV3/Scaled", "shape": [2048], "dtype": "float32"}, {"name": "StatefulPartitionedCall/sequential_1/keras_layer/StatefulPartitionedCall/StatefulPartitionedCall/StatefulPartitionedCall/predict/resnet_v2_50/postnorm/FusedBatchNormV3/Offset", "shape": [2048], "dtype": "float32"}, {"name": "StatefulPartitionedCall/sequential_1/keras_layer/StatefulPartitionedCall/StatefulPartitionedCall/StatefulPartitionedCall/predict/resnet_v2_50/block4/unit_3/bottleneck_v2/preact/FusedBatchNormV3/Scaled", "shape": [2048], "dtype": "float32"}, {"name": "StatefulPartitionedCall/sequential_1/keras_layer/StatefulPartitionedCall/StatefulPartitionedCall/StatefulPartitionedCall/predict/resnet_v2_50/block4/unit_3/bottleneck_v2/preact/FusedBatchNormV3/Offset", "shape": [2048], "dtype": "float32"}, {"name": "StatefulPartitionedCall/sequential_1/keras_layer/StatefulPartitionedCall/StatefulPartitionedCall/StatefulPartitionedCall/predict/resnet_v2_50/block4/unit_2/bottleneck_v2/preact/FusedBatchNormV3/Scaled", "shape": [2048], "dtype": "float32"}, {"name": "StatefulPartitionedCall/sequential_1/keras_layer/StatefulPartitionedCall/StatefulPartitionedCall/StatefulPartitionedCall/predict/resnet_v2_50/block4/unit_2/bottleneck_v2/preact/FusedBatchNormV3/Offset", "shape": [2048], "dtype": "float32"}, {"name": "StatefulPartitionedCall/sequential_1/keras_layer/StatefulPartitionedCall/StatefulPartitionedCall/StatefulPartitionedCall/predict/resnet_v2_50/block4/unit_1/bottleneck_v2/preact/FusedBatchNormV3/Scaled", "shape": [1024], "dtype": "float32"}, {"name": "StatefulPartitionedCall/sequential_1/keras_layer/StatefulPartitionedCall/StatefulPartitionedCall/StatefulPartitionedCall/predict/resnet_v2_50/block4/unit_1/bottleneck_v2/preact/FusedBatchNormV3/Offset", "shape": [1024], "dtype": "float32"}]}]}